ippc/job/offline/weights/reward_model.pt (torch, 331514 bytes, 5 tensors)

net.0.weight f4 [256, 62]
0.017851189 0.026745891 0.14146164 0.046770345 -0.1406825 0.16537279 -0.16184542 -0.084724
0.17729782 0.060416307 0.16276346 -0.45494848 0.07065859 0.21910572 -0.034945156 -0.1270618
-0.16232356 0.11114433 0.03573959 0.2932385 -0.39227948 0.23490931 0.084335044 0.004296936
0.072780184 0.16421866 0.092476755 -0.18027957 0.17343307 -0.09753346 0.22289707 -0.19246304
-0.22321214 0.25448644 0.19101107 -0.21271922 -0.18827179 -0.19390944 -0.07725297 0.031332754
0.036615174 0.4047664 -0.16105165 -0.08256729 -0.16864508 0.092216775 -0.27154973 0.1605144
0.28510028 -0.22731301 -0.06180624 0.31152678 -0.09509375 -0.08379171 -0.42112333 -0.20385364
-0.03508152 -0.14077136 0.34646073 0.13637342 0.11933295 0.20119229 0.11601287 -0.24444455
0.10173942 -0.24253944 -0.07831214 -0.043333296 -0.06961023 -0.32528964 -0.31495664 -0.13080668
0.08943307 -0.05782681 -0.08591462 0.123416714 0.03242562 -0.13852362 0.04522239 -0.45729873
0.054096375 -0.17665678 -0.07260606 0.083424345 -0.19874525 0.060100485 -0.20852117 -0.10343532
0.37204537 -0.1580117 -0.5738503 -0.045904875 -0.088481374 -0.022353625 0.3860156 -0.19915038
0.049257576 -0.052709106 -0.13342798 -0.2775008 0.3517824 -0.0011951398 -0.22817941 0.16724108
0.10747531 -0.0457694 -0.12222015 0.045675937 0.17030758 -0.24961832 0.05168636 0.28532183
-0.036253273 0.1503675 -0.004792977 -0.33197188 0.01690067 0.22194538 0.058494486 0.08466615
0.077182576 0.04123578 -0.2951589 -0.10576471 0.33359656 -0.107549004 -0.09391399 -0.10831777
0.23860087 -0.07462526 0.29209858 -0.1055257 -0.084029414 -0.10160276 -0.07755971 0.04310052
-0.25629982 -0.03636915 0.1434047 0.20810483 0.06911749 0.16660926 0.25608912 0.016167507
0.1398315 0.16137795 -0.21037447 0.076671064 0.3024446 0.031865183 -0.02293804 0.11187975
-0.029056195 -0.4523564 0.3018081 0.10309217 -0.03166079 0.084134586 -0.037050843 0.0891649
0.35533717 -0.009856168 0.11476065 -0.09249943 0.09089061 -0.07814448 -0.14555931 -0.2982971
-0.0219566 -0.08875433 0.03614906 -0.15359913 0.06066702 -0.2292129 -0.18878426 0.11944242
0.16984318 0.291427 0.11285778 -0.013504961 0.012613421 -0.24011825 -0.08493553 0.0866705
0.041061644 0.124294676 -0.039957814 -0.025715748 0.23753853 -0.059066933 0.16107441 0.26417938
0.10275229 -0.33699253 -0.24116392 0.38363695 0.5085966 -0.004437986 0.13518867 -0.16875297
-0.12082973 -0.04373393 0.11331722 -0.23954923 0.09032741 0.26170108 0.08377578 -0.11717775
-0.14101501 0.2662076 -0.30238914 -0.19373046 0.22843237 0.14282759 -0.012165471 -0.01817167
-0.15229474 0.028273946 -0.035895806 -0.13088551 -0.10969237 -0.16042705 -0.15696871 -0.092423625
0.049390912 -0.14208207 0.0043076957 -0.08513532 -0.24756183 0.08724602 -0.013145619 -0.16909312
-0.003106687 -0.037068702 -0.11453487 -0.31929052 0.21660456 -0.12856185 -0.48054487 -0.013323266
0.19109501 0.08984324 0.090741366 -0.1571243 -0.37607768 0.24664746 0.14485256 -0.21010847
-0.036263086 -0.09894142 0.08073942 0.14847812 -0.12857436 -0.07037975 0.10112251 -0.10643771
00000000: a83c 923c 331a db3c 52db 103e 4392 3f3d
00000010: 130f 10be 7c57 293e ceba 25be c783 adbd
00000020: 8f8d 353e 1777 773d 77ab 263e 02ef e8be
00000030: 73b5 903d 405d 603e a722 0fbd 7d1c 02be
00000040: 2638 26be a39f e33d ad63 123d 5b23 963e
00000050: dbd8 c8be 118c 703e dab7 ac3d 50cd 8c3b
00000060: c70d 953d f028 283e 7464 bd3d 359b 38be
00000070: 7098 313e 9fbf c7bd 213f 643e 0815 45be
00000080: b991 64be 0c4c 823e 6898 433e 11d3 59be
00000090: 52ca 40be 3290 46be ce36 9ebd c656 003d
000000a0: cbf9 153d 8b3d cf3e b9ea 24be 0a19 a9bd
000000b0: 4cb1 2cbe 26dc bc3d 9108 8bbe e35d 243e
000000c0: aaf8 913e bec4 68be 8a28 7dbd 7080 9f3e
000000d0: 83c0 c2bd fd9a abbd 7a9d d7be 02bf 50be
000000e0: a4b1 0fbd 5e26 10be 4d63 b13e 79a5 0b3e
000000f0: d564 f43d 5a05 4e3e 2898 ed3d ac4f 7abe
00000100: c25c d03d 425c 78be 1e62 a0bd 417e 31bd
00000110: cf8f 8ebd 5d8c a6be ff41 a1be 30f2 05be
00000120: af28 b73d cedb 6cbd 01f4 afbd e7c1 fc3d
00000130: bad0 043d 23d9 0dbe 1d3b 393d 0f23 eabe
00000140: 2994 5d3d 84e5 34be 7cb2 94bd 62da aa3d
00000150: e083 4bbe ed2b 763d 9386 55be e6d5 d3bd
00000160: bb7c be3e d2cd 21be dae7 12bf c006 3cbd
00000170: b935 b5bd f31e b7bc d6a3 c53e 14ee 4bbe
00000180: 50c2 493d 81e5 57bd 58a1 08be 9614 8ebe
00000190: d31c b43e 3da6 9cba dda7 69be 3f41 2b3e
000001a0: 041c dc3d b278 3bbd 8f4e fabd b116 3b3d
000001b0: 1c65 2e3e f29b 7fbe 14b5 533d b415 923e
000001c0: 507e 14bd f0f9 193e 680e 9dbb 38f8 a9be
000001d0: 4673 8a3c a645 633e ea97 6f3d 7265 ad3d
000001e0: e611 9e3d d9e6 283d 111f 97be 2b9b d8bd
000001f0: 2bcd aa3e a742 dcbd fa55 c0bd b5d5 ddbd
00000200: c953 743e 21d5 98bd f28d 953e dc1d d8bd
00000210: 9d17 acbd 1c15 d0bd a0d7 9ebd 2c8a 303d
00000220: bb39 83be d1f7 14bd afd8 123e 6f19 553e
00000230: 788d 8d3d 9e9b 2a3e 1d1e 833e b871 843c
00000240: fd2f 0f3e 4340 253e 686c 57be b805 9d3d
00000250: 05da 9a3e 1185 023d 8ee8 bbbc 3621 e53d
00000260: 4207 eebc 429b e7be 9786 9a3e fd21 d33d
00000270: bfae 01bd c14e ac3d a0c2 17bd 169c b63d
00000280: c1ee b53e c47b 21bc a207 eb3d 5770 bdbd
00000290: db24 ba3d 370a a0bd 800d 15be 66ba 98be
000002a0: 54de b3bc d5c4 b5bd 0911 143d 1749 1dbe
000002b0: fb7d 783d c9b6 6abe a950 41be 3a9e f43d
000002c0: 5feb 2d3e eb35 953e fb21 e73d e943 5dbc
000002d0: 86a8 4e3c 8fe1 75be aef2 adbd 4e80 b13d
000002e0: 4130 283d 358e fe3d ceaa 23bd d5a9 d2bc
000002f0: 4d3d 733e 2bf0 71bd b1f0 243e 8542 873e
00000300: cb6f d23d 498a acbe adf3 76be 106c c43e
00000310: 6333 023f 866c 91bb e66e 0a3e 94cd 2cbe
00000320: 9475 f7bd 5922 33bd dc12 e83d 654c 75be
00000330: 94fd b83d affd 853e a392 ab3d e3fa efbd
00000340: 3d66 10be 5d4c 883e c0d2 9abe 4761 46be
00000350: 2dea 693e 6541 123e af51 47bc c1dc 94bc
00000360: 27f3 1bbe c39e e73c 7b07 13bd da06 06be
00000370: 65a6 e0bd fd46 24be 68bc 20be 9948 bdbd
00000380: 204e 4a3d f67d 11be 9227 8d3b 6d5b aebd
00000390: d980 7dbe 0bae b23d b960 57bc bf26 2dbe
000003a0: 8f99 4bbb 5ad5 17bd 4291 eabd 0c7a a3be
000003b0: 96cd 5d3e b8a5 03be fa09 f6be d449 5abc
000003c0: 69ae 433e bcff b73d 9cd6 b93d 31e5 20be
000003d0: 418d c0be 2791 7c3e 3b54 143e ad26 57be
000003e0: 9a88 14bd cda1 cabd b65a a53d a60a 183e
000003f0: ffa8 03be 4223 90bd 5219 cf3d 04fc d9bd

net.0.bias f4 [256]
0.05894617 -0.014801626 0.051028054 -0.07462702 -0.1168464 -0.052272506 -0.028494166 -0.12866609
0.014890819 -0.029813727 -0.09425629 -0.121487685 0.102381304 0.018256955 -0.049431212 0.055780616
-0.018801678 0.02253414 -0.101661935 -0.09295437 -0.08481232 0.016173543 0.12389434 -0.11744224
-0.07063644 0.007736932 -0.10863327 0.08650296 -0.04502554 -0.04343457 0.029162567 0.06563984
-0.02188846 0.046924602 -0.004982872 0.09820922 0.13172549 -0.04149 -0.0802747 -0.038678586
0.16160075 0.07333293 0.015496414 -0.021561855 0.053793307 -0.08682252 0.106859334 -0.100808136
-0.075917736 -0.035251096 0.08576418 0.11198707 -0.023080545 0.10605005 -0.07059187 0.092621334
0.039633375 -0.041065022 -0.060458172 -0.08725447 0.007920915 -0.07997957 -0.019050917 0.10344754
-0.0439211 0.10311525 0.040549252 0.018039305 -0.07010559 -0.06484945 -0.06656388 -0.03311185
-0.020160962 0.023999352 -0.043686014 -0.07418334 0.07507914 -0.08802256 -0.09201612 -0.09693092
0.08857466 0.13168955 -0.06910321 0.113396846 -0.12620363 -0.06178022 0.01985892 0.07886204
0.084059104 -0.081210464 -0.094407745 -0.10757131 0.15999544 0.09704676 -0.031248344 -0.037839733
0.11589307 -0.10181472 0.03856492 -0.0650704 -0.019020008 0.09217309 -0.124005415 -0.1062239
0.014444217 -0.06935495 0.10507229 0.046372067 0.035744675 0.023224311 0.027848186 -0.083491996
-0.10403286 -0.018598879 -0.09457378 -0.10659412 -0.10842009 0.09579397 -0.05251578 0.09771625
0.06299047 0.12663303 -0.08141975 -0.03271527 -0.07010124 -0.039622463 -0.11570181 0.13344017
-0.088946916 0.060506772 0.022665713 0.12159736 -0.050349064 0.0764771 0.038747832 0.08850385
0.036746304 0.12435124 -0.05809969 0.08705289 0.11777582 -0.055269483 0.05081898 -0.003436908
-0.06421845 -0.007902824 -0.092815496 -0.11543926 -0.047069408 -0.023283673 -0.03558665 -0.019443816
0.037112854 -0.02940254 -0.03775495 0.07395701 0.1385387 -0.04299092 -0.09811948 0.033705737
0.019803667 -0.012241464 -0.037156984 -0.08292834 -0.07188698 -0.02063422 -0.07506987 0.051120464
-0.10716379 0.029884731 0.016915297 -0.048449796 -0.024299461 0.06774323 -0.12171262 0.05906253
0.13319793 -0.06720782 0.092810184 0.08137509 0.0013437406 0.12382212 -0.07317771 -0.067659006
-0.0331741 0.08822145 -0.023339834 0.12871994 0.04809086 0.029654153 -0.08500255 -0.09655956
0.11628707 -0.090884194 0.005805577 0.054771874 -0.08530765 -0.025410205 -0.070097655 -0.08662869
-0.08218597 0.018433707 0.040213946 -0.10431507 -0.0357478 0.041950263 0.046307646 0.058821954
-0.001550896 -0.016092215 0.109812565 -0.01710274 -0.09015754 -0.02580444 0.12272348 -0.07769969
-0.06581002 -0.018247487 0.122127175 0.033193924 0.09182016 -0.031009678 0.032648183 -0.0067302375
0.10823995 0.024922106 0.07427823 0.094145395 0.04369753 0.06613158 0.11085396 0.098736525
0.09233465 -0.05332582 -0.09803011 -0.043657795 0.06407979 0.0018949931 -0.112059094 -0.038150053
0.02606202 0.124430925 -0.07851302 -0.10065275 0.06559755 -0.015169086 -0.08001741 0.1153429
0.048960462 0.07155522 -0.08650757 -0.057993907 0.08482966 0.024210367 0.14087531 0.13265611
00000000: 8a71 713d 8582 72bc cb02 513d 0dd6 98bd
00000010: 2a4d efbd b21b 56bd 996c e9bc 0bc1 03be
00000020: 9ff8 733c eb3b f4bc 7109 c1bd 89ce f8bd
00000030: 4aad d13d 9c8f 953c 6278 4abd 377a 643d
00000040: fa05 9abc 8499 b83c 2234 d0bd dc5e bebd
00000050: 15b2 adbd 617e 843c 51bc fd3d 8f85 f0bd
00000060: d6a9 90bd 1786 fd3b 1f7b debd 7728 b13d
00000070: b36c 38bd 73e8 31bd 56e6 ee3c 2e6e 863d
00000080: 6d4f b3bc 0334 403d 5c47 a3bb ea21 c93d
00000090: 0ce3 063e 6bf1 29bd 1067 a4bd 706d 1ebd
000000a0: ab7a 253e 932f 963d ace4 7d3c 7da2 b0bc
000000b0: 5f56 5c3d 01d0 b1bd 11d9 da3d 7f74 cebd
000000c0: c27a 9bbd 7463 10bd 21a5 af3d 7a59 e53d
000000d0: 6913 bdbc c530 d93d 7892 90bd 41b0 bd3d
000000e0: 9b56 223d cc33 28bd fda2 77bd 79b2 b2bd
000000f0: bac6 013c 54cc a3bd ab10 9cbc 4edc d33d
00000100: 9de6 33bd 172e d33d f916 263d 2ac7 933c
00000110: 8593 8fbd cacf 84bd a552 88bd 4ba0 07bd
00000120: 9a28 a5bc 4a9a c43c 1bf0 32bd 6fed 97bd
00000130: 18c3 993d 2c45 b4bd f372 bcbd b883 c6bd
00000140: a266 b53d a0d9 063e fc85 8dbd 9b3c e83d
00000150: 863b 01be 420d 7dbd 2caf a23c 6c82 a13d
00000160: 2e27 ac3d ac51 a6bd d958 c1bd 594e dcbd
00000170: d8d5 233e 74c0 c63d 87fc ffbc d6fd 1abd
00000180: 5959 ed3d 3c84 d0bd 40f6 1d3d a143 85bd
00000190: d9cf 9bbc 3fc5 bc3d 8df6 fdbd eb8b d9bd
000001a0: 70a7 6c3c f809 8ebd 2430 d73d a3f0 3d3d
000001b0: 0269 123d e940 be3c e121 e43c dafd aabd
000001c0: 2e0f d5bd ad5c 98bc e6af c1bd 054e dabd
000001d0: 5a0b debd a12f c43d c91a 57bd 751f c83d
000001e0: 2601 813d 17ac 013e 66bf a6bd 7200 06bd
000001f0: 3d91 8fbd 2a4b 22bd 12f5 ecbd 8aa4 083e
00000200: cd29 b6bd f3d5 773d 72ad b93c 0908 f93d
00000210: d23a 4ebd 07a0 9c3d 0cb6 1e3d 8241 b53d
00000220: 4b83 163d ddab fe3d f1f9 6dbd c948 b23d
00000230: 7334 f13d 4162 62bd 9027 503d bf3d 61bb
00000240: f684 83bd d97a 01bc 0d16 bebd 6b6b ecbd
00000250: dacb 40bd 67bd bebc 4fc3 11bd a348 9fbc
00000260: a603 183d 98dd f0bc efa4 1abd c676 973d
00000270: 17dd 0d3e 3f17 30bd def2 c8bd 070f 0a3d
00000280: 4d3b a23c 6c90 48bc ec31 18bd 55d6 a9bd
00000290: 7b39 93bd 1909 a9bc 3bbe 99bd b163 513d
000002a0: b078 dbbd d3d0 f43c f391 8a3c 4b73 46bd
000002b0: aa0f c7bc f6bc 8a3d 7744 f9bd 8deb 713d
000002c0: 0a65 083e 41a4 89bd 4413 be3d fca7 a63d
000002d0: 7420 b03a 7496 fd3d 32de 95bd ce90 8abd
000002e0: 91e1 07bd 73ad b43d 2e33 bfbc 29cf 033e
000002f0: ecfa 443d 44ed f23c d115 aebd 05c1 c5bd
00000300: ea27 ee3d 7e21 babd b63c be3b 7958 603d
00000310: c7b5 aebd 1029 d0bc 5c8f 8fbd 626a b1bd
00000320: 1e51 a8bd 4902 973c 61b7 243d 24a3 d5bd
00000330: 496c 12bd 0ad4 2b3d 16ad 3d3d 4aef 703d
00000340: 6f47 cbba d2d3 83bc 69e5 e03d 0c1b 8cbc
00000350: 84a4 b8bd d563 d3bc 7356 fb3d 0421 9fbd
00000360: 67c7 86bd c17b 95bc d01d fa3d 5af6 073d
00000370: 350c bc3d 0208 febc 1aba 053d 5389 dcbb
00000380: e8ac dd3d 7229 cc3c 2f1f 983d 4dcf c03d
00000390: 2efc 323d fe6f 873d 6707 e33d 6036 ca3d
000003a0: f319 bd3d 2d6c 5abd 03c4 c8bd 84d2 32bd
000003b0: 443c 833d 6b61 f83a 3d7f e5bd 3b43 1cbd
000003c0: 0480 d53c a4d5 fe3d 6fcb a0bd 0723 cebd
000003d0: 0258 863d c287 78bc 2be0 a3bd e638 ec3d
000003e0: c48a 483d 8b8b 923d e22a b1bd 058b 6dbd
000003f0: 2cbb ad3d d254 c63c 9e41 103e 01d7 073e

net.2.weight f4 [256, 256]
0.14091954 -0.13065141 0.05757574 -0.20317204 -0.05198158 -0.0060688783 0.18060704 0.017620102
0.07451604 -0.11296191 -0.21351169 -0.1346096 0.04587368 0.06523474 0.05958906 -0.058013365
-0.09397966 0.09606877 -0.16260524 0.004703922 0.050656553 -0.025029361 0.009361899 -0.06777149
0.03192734 -0.0772995 -0.006014457 0.018068014 0.14345124 -0.111977264 -0.16688903 -0.103641905
0.022929426 -0.021819483 -0.08349477 -0.073567875 -0.009959719 0.10138008 0.08986428 0.08909267
-0.0986288 -0.07293069 -0.1481264 0.040303968 0.21386318 -0.08446576 -0.0037076343 -0.056316953
-0.05384421 -0.0052864407 0.061556254 -0.14622381 0.09134595 -0.05487622 -0.06501902 0.086585775
0.24610664 -0.1776394 -0.009475521 0.0027870794 -0.0021694915 -0.1545454 -0.10225482 0.026509106
0.018969756 0.016318358 0.045772873 -0.015091224 -0.18508333 0.19584137 -0.000562367 -0.031401437
0.107020736 0.111336574 0.048902735 0.02616996 -0.1284921 -0.0155734 0.014404675 0.014321157
-0.045783974 -0.025892466 -0.059741262 0.13737836 -0.10952236 -0.044987794 0.09296284 -0.021848163
-0.13885717 -0.032498606 0.035101186 -0.07682525 -0.06602003 -0.02025172 0.03975018 0.16373181
0.06626831 0.045369066 0.0040883753 0.052342057 -0.11483823 0.031745248 0.08842384 0.15964445
-0.14700931 -0.08301338 0.033898193 0.07290843 0.11195426 0.1189814 -0.023723293 -0.054852564
-0.0017834017 -0.06757841 -0.012771157 0.119494095 0.016458439 -0.037494484 0.11189836 0.034198686
0.06257461 -0.060447447 -0.20672773 0.17794296 -0.1906693 -0.026099455 -0.002454658 -0.21174379
0.119265914 0.09130575 0.041372865 -0.021452324 0.05174222 0.023105498 0.06714822 -0.027057119
0.039519336 -0.054613538 -0.13871232 0.06520138 0.0007610484 0.016602121 -0.06255583 0.09515902
-0.043970276 -0.10554142 0.2370168 -0.10634174 0.0093176905 -0.018408345 -0.039097257 0.11383833
-0.20252141 -0.14388043 0.1068663 0.0030653586 -0.16618311 -0.033554662 -0.17252177 0.015560914
0.029716857 -0.10463597 0.014902489 0.21419741 -0.014289006 -0.0034779767 0.17426175 0.028607793
0.039366387 -0.0038441662 0.07896511 -0.21380529 0.059489664 0.04977935 0.17744707 0.026792
0.1572364 0.22559877 -0.040904846 0.155346 -0.000339733 -0.034682803 -0.027741874 -0.028801538
0.06312865 -0.09534223 -0.027543047 -0.020217558 -0.055804454 -0.033988923 -0.04436947 0.006441882
0.10843119 -0.106637254 -0.0194582 0.15165554 -0.059324738 -0.093347274 -0.15410295 0.11419692
0.06129287 0.060862526 0.002084271 0.010317693 -0.06129828 0.18980251 -0.08934591 -0.013312814
0.1706041 0.08626374 0.16501553 -0.19843177 0.027447417 0.07611689 0.08266679 -0.14015432
0.08744432 -0.007650633 0.018834973 -0.11920634 -0.016970681 0.023375984 -0.0062149675 -0.021911267
-0.039010633 -0.10186762 -0.016404252 -0.19427136 -0.051354557 0.0150664225 0.13924196 0.0141214775
-0.06505609 0.10674256 -0.04141475 0.039079174 0.02309771 -0.014355697 0.10011662 -0.19073923
0.1257828 0.08848196 -0.1428132 0.14751585 0.08473263 0.10811862 0.06969805 0.035870574
-0.023792591 0.11304253 0.047294192 -0.2678704 0.01904631 -0.27983877 0.0006746595 0.024122374
00000000: 364d 103e 7cc9 05be 8ad4 6b3d 550c 50be
00000010: a3ea 54bd 71dd c6bb 0df1 383e 0858 903c
00000020: de9b 983d 9358 e7bd cfa2 5abe 19d7 09be
00000030: 0ae6 3b3d cb99 853d a813 743d 6c9f 6dbd
00000040: 6878 c0bd b4bf c43d fd81 26be 5c23 9a3b
00000050: 3f7d 4f3d 600a cdbc a762 193c c7cb 8abd
00000060: 3ec6 023d 334f 9ebd ec14 c5bb 5f03 943c
00000070: e2e4 123e 5654 e5bd f5e4 2abe 3542 d4bd
00000080: 7ed6 bb3c c6be b2bc 4eff aabd c1aa 96bd
00000090: 172e 23bc 5ca0 cf3d c30a b83d 3876 b63d
000000a0: e5fd c9bd b05c 95bd 72ae 17be c615 253d
000000b0: f3fe 5a3e 62fc acbd c8fb 72bb 9bac 66bd
000000c0: bf8b 5cbd e139 adbb 6922 7c3d b2bb 15be
000000d0: 9613 bb3d e3c5 60bd b128 85bd e253 b13d
000000e0: 6103 7c3e 1ae7 35be 373f 1bbc 6fa7 363b
000000f0: 072e 0ebb 2641 1ebe fa6a d1bd a029 d93c
00000100: 7666 9b3c 14ae 853c 567c 3b3d 2e41 77bc
00000110: 7c86 3dbe a48a 483e cf6b 13ba cb9e 00bd
00000120: b02d db3d 6e04 e43d 3c4e 483d 6262 d63c
00000130: 6f93 03be 9327 7fbc 9601 6c3c 49a3 6a3c
00000140: fa87 3bbd 701c d4bc 41b3 74bd eaac 0c3e
00000150: 424d e0bd 1f45 38bd 4d63 be3d ebfa b2bc
00000160: 9330 0ebe 421d 05bd 43c6 0f3d 8f56 9dbd
00000170: 8235 87bd efe6 a5bc 16d1 223d 50a9 273e
00000180: aeb7 873d ead4 393d c7f7 853b a064 563d
00000190: 4e30 ebbd 4e07 023d 8f17 b53d d679 233e
000001a0: 9c89 16be eb02 aabd d5d8 0a3d 0451 953d
000001b0: 4648 e53d 85ac f33d 5a57 c2bc 15ad 60bd
000001c0: 08c1 e9ba 8d66 8abd 1d3e 51bc 52b9 f43d
000001d0: d9d3 863c d193 19bd f82a e53d ec13 0c3d
000001e0: 1e27 803d be97 77bd 6fb0 53be ae36 363e
000001f0: d03e 43be 86ce d5bc 54de 20bb 5dd3 58be
00000200: b041 f43d 82fe ba3d 9876 293d c9bc afbc
00000210: a6ef 533d be47 bd3c 0285 893d e4a6 ddbc
00000220: 07df 213d 72b2 5fbd 9a0a 0ebe 4d88 853d
00000230: 1881 473a 2c01 883c 451d 80bd bbe2 c23d
00000240: 2d1a 34bd 1a26 d8bd 88b4 723e b3c9 d9bd
00000250: 3aa9 183c 19cd 96bc 7224 20bd 1224 e93d
00000260: c661 4fbe 6455 13be b8dc da3d 2fe4 483b
00000270: e82b 2abe 9d70 09bd 8ca9 30be 34f3 7e3c
00000280: c470 f33c 624b d6bd 9229 743c 9156 5b3e
00000290: 6f1c 6abc c4ee 63bb ac71 323e e45a ea3c
000002a0: a63e 213d 68ee 7bbb 76b8 a13d c6ef 5abe
000002b0: 6fab 733d 6fe5 4b3d afb4 353e e57a db3c
000002c0: 9402 213e 5d03 673e d78b 27bd 0613 1f3e
000002d0: 311e b2b9 8e0f 0ebd ed42 e3bc 34f1 ebbc
000002e0: 9849 813d c942 c3bd f5a1 e1bc 4b9f a5bc
000002f0: 3693 64bd f837 0bbd c3bc 35bd 6c16 d33b
00000300: 2c11 de3d a264 dabd ce66 9fbc 974b 1b3e
00000310: 7ffe 72bd db2c bfbd 2acd 1dbe 13e0 e93d
00000320: 3c0e 7b3d fc4a 793d 4498 083b 8b0b 293c
00000330: e813 7bbd 975b 423e fdfa b6bd fd1d 5abc
00000340: d7b2 2e3e 0bab b03d d5f9 283e b331 4bbe
00000350: 68d9 e03c 2ce3 9b3d 354d a93d 9d84 0fbe
00000360: 0216 b33d 29b2 fabb cd4b 9a3c 7422 f4bd
00000370: 1906 8bbc fe7e bf3c eda6 cbbb 427f b3bc
00000380: 9dc9 1fbd f99f d0bd 3662 86bc 12ef 46be
00000390: 2859 52bd 28d9 763c 7295 0e3e c55d 673c
000003a0: 213c 85bd d89b da3d 83a2 29bd 7c11 203d
000003b0: 6937 bd3c 2834 6bbc f109 cd3d 2551 43be
000003c0: 35cd 003e 0836 b53d a03d 12be 650e 173e
000003d0: 4d88 ad3d 4c6d dd3d dabd 8e3d 06ed 123d
000003e0: aee8 c2bc d882 e73d 8eb7 413d 4f26 89be
000003f0: 0207 9c3c 0747 8fbe a2db 303a 499c c53c

net.2.bias f4 [256]
-0.016538188 -0.010158515 0.01134935 -0.039709803 0.036155183 -0.02797864 -0.058997046 0.014016593
0.024360253 -0.009536254 0.06358236 0.027272942 -0.058040652 0.024146317 -0.011856887 0.06520306
-0.054079007 0.046708398 0.038236327 -0.038861938 0.0060954173 -0.011715917 -0.003927859 0.017933536
-0.027317623 0.03553608 0.020057084 0.04076809 -0.024640765 0.008782534 0.062637605 -0.062313672
-0.024383558 0.002300415 -0.00813807 -0.016217086 -0.011929066 0.0030827026 0.06542331 0.050074704
0.031540405 0.033819333 0.05410792 0.0049056504 0.022533176 0.0066413623 -0.018466825 0.025207112
0.055374406 0.06305092 -0.003983939 0.07732909 -0.004047976 -0.05463104 0.011584899 -0.039113775
0.015657904 0.02923378 -0.03612026 0.02914835 -0.013111317 0.0022969348 0.061200622 0.024228157
-0.011615488 0.016493177 -0.015913567 0.019182405 -0.050530806 0.0035046507 0.0057189255 0.0081146415
0.045017324 -0.030137854 0.024822704 0.05616823 0.028163576 0.047558784 -0.034433175 0.067784965
-0.0060035414 0.022566047 -0.05084808 0.026518883 0.074109204 -0.0019302769 -0.04641178 0.05556748
-0.054604996 -0.0486434 0.046296 0.05640959 0.04628101 0.03085251 0.03885911 0.056767937
0.012003632 -0.021358417 0.02998391 0.04525422 0.021459322 0.040753 -0.033478025 0.04137061
-0.03838425 0.040512387 -0.026842127 -0.060140915 -0.054647837 -0.04146183 0.0057152254 -0.015421932
0.058413483 -0.016537089 -0.051267546 -0.03861464 0.022886671 0.046661593 -0.061758414 -0.034887888
-0.017099397 0.021755142 0.0467272 -0.0018788597 -0.0011630419 0.03955312 -0.011530401 0.0028008327
0.032445427 -0.04608819 -0.05081702 0.056160655 -0.00449509 -0.03328322 -0.02151353 0.068771616
-0.0057862457 0.048339915 0.07250921 0.0033156436 0.06079638 -0.042798743 -0.05941253 0.0389997
0.010618726 -0.056354124 -0.013781682 0.01992281 -0.06410537 -0.04042648 0.013025338 0.056858115
0.041115373 0.0030371856 0.029775202 -0.030065428 0.05366759 0.021561906 -0.064939074 -0.044711426
0.03782881 -0.05745918 -0.03881222 0.01589132 -0.021361282 0.043130264 -0.02696515 0.038913332
0.0394466 0.050461415 0.071841374 -0.049382158 -0.012867214 0.07206449 0.0772384 -0.008034355
0.0638773 -0.03994092 -0.048749365 -0.03912662 -0.011698893 0.053370893 -0.0015487813 -0.0041384017
0.07360637 -0.054058213 -0.007990442 -0.013348841 0.02991038 0.04052794 0.03328108 0.03250016
-0.033140514 -0.027103424 -0.012550997 0.029395085 -0.00788568 -0.01385235 0.024460504 -0.041286025
-0.048808318 0.027694395 0.05120747 -0.04529509 -0.061293192 0.02800282 -0.03326523 -0.022535153
0.039797015 -0.007159425 -0.023003772 0.06579751 0.05123213 0.029134441 0.045272436 0.009137584
-0.007818959 0.07010556 0.029059714 0.04402274 0.011020704 -0.008466672 0.024988925 -0.021669867
-0.011196768 0.009058531 0.039190944 0.03923992 -0.06217402 0.03497519 0.008784708 -0.060009267
-0.012926202 -0.05235074 0.052183915 0.03429945 0.04120055 -0.007757348 -0.02690483 -0.0031517688
-0.0007531904 -0.011475799 0.0028356924 0.017788192 -0.04225642 0.057410095 0.04498473 -0.065715075
0.018704465 0.03548205 -0.017984806 -0.04984828 0.045694593 0.069237836 0.038722258 0.032611452
00000000: 187b 87bc e66f 26bc a0f2 393c bfa6 22bd
00000010: 7517 143d 7633 e5bc e3a6 71bd daa5 653c
00000020: 278f c73c f33d 1cbc 7837 823d 816b df3c
00000030: 09bc 6dbd 7fce c53c 6343 42bc 2f89 853d
00000040: f381 5dbd 4e51 3f3d b29d 1c3d b22d 1fbd
00000050: 11bc c73b 1ef4 3fbc 45b5 80bb 5ae9 923c
00000060: 35c9 dfbc 488e 113d c14e a43c 71fc 263d
00000070: 6edb c9bc 9ee4 0f3c 2548 803d 9f3c 7fbd
00000080: 07c0 c7bc 8fc2 163b 8a55 05bc b2d9 84bc
00000090: 2172 43bc 2b07 4a3b a8fc 853d 221b 4d3d
000000a0: 8330 013d 2486 0a3d 44a0 5d3d 94bf a03b
000000b0: 7f97 b83c c99f d93b bd47 97bc 257f ce3c
000000c0: 46d0 623d d720 813d b48b 82bb b75e 9e3d
000000d0: e2a4 84bb ccc4 5fbd 97ce 3d3c c435 20bd
000000e0: 0145 803c ae7b ef3c d6f2 13bd 85c8 ee3c
000000f0: d9d0 56bc 2c88 163b 81ad 7a3d 217a c63c
00000100: e34e 3ebc b31c 873c 2b5d 82bc 6b24 9d3c
00000110: 64f9 4ebd 48ae 653b d365 bb3b 46f3 043c
00000120: 1664 383d a9e3 f6bc fc58 cb3c a810 663d
00000130: 4db7 e63c 00cd 423d cd09 0dbd d8d2 8a3d
00000140: 5bb9 c4bb 6edc b83c 1446 50bd 213e d93c
00000150: 91c6 973d 5801 fdba 471a 3ebd ba9a 633d
00000160: 7da9 5fbd 4d3e 47bd e0a0 3d3d be0d 673d
00000170: 2891 3d3d 67be fc3c bb2a 1f3d 7f85 683d
00000180: e2aa 443c d9f7 aebc d1a0 f53c 7d5c 393d
00000190: 76cb af3c 9eec 263d 4120 09bd 3b74 293d
000001a0: ce38 1dbd 51f0 253d 05e4 dbbc 5256 76bd
000001b0: 69d6 5fbd e1d3 29bd c946 bb3b 45ac 7cbc
000001c0: fa42 6f3d ca78 87bc ebfd 51bd 622a 1ebd
000001d0: d47c bb3c 3a20 3f3d 64f6 7cbd 9ae6 0ebd
000001e0: 0914 8cbc d737 b23c 0565 3f3d 1244 f6ba
000001f0: 3671 98ba 7402 223d 02ea 3cbc 2d8e 373b
00000200: 7fe5 043d f8c6 3cbd 8225 50bd b708 663d
00000210: 8c4b 93bb fc53 08bd 243d b0bc 22d8 8c3d
00000220: 8c9a bdbb 1300 463d b57f 943d 454b 593b
00000230: a005 793d bc4d 2fbd 8e5a 73bd 26be 1f3d
00000240: 2afa 2d3c 95d3 66bd 90cc 61bc 2935 a33c
00000250: ad49 83bd 3d96 25bd 3a68 553c 0ee4 683d
00000260: 9868 283d 850b 473b 20eb f33c c64b f6bc
00000270: 8cd2 5b3d 98a2 b03c c7fe 84bd 5423 37bd
00000280: 62f2 1a3d 515a 6bbd 90f9 1ebd 832e 823c
00000290: dbfd aebc 5ca9 303d 05e6 dcbc 9663 1f3d
000002a0: c292 213d a1b0 4e3d 9221 933d f244 4abd
000002b0: 02d1 52bc 8c96 933d 2b2f 9e3d 87a2 03bc
000002c0: 1ad2 823d 1799 23bd 6aad 47bd 3c43 20bd
000002d0: b7ac 3fbc 709b 5a3d 7a00 cbba 6e9b 87bb
000002e0: f0be 963d 256c 5dbd 58ea 02bc 19b5 5abc
000002f0: 9d06 f53c a000 263d be51 083d e31e 053d
00000300: 59be 07bd 0008 debc b2a2 4dbc f6cd f03c
00000310: f032 01bc f8f4 62bc 6561 c83c 891b 29bd
00000320: 3beb 47bd 5bdf e23c edbe 513d 5887 39bd
00000330: 920e 7bbd 2c66 e53c 1f41 08bd a49b b8bc
00000340: 3202 233d 9c99 eabb 6872 bcbc d8c0 863d
00000350: c8d8 513d 5aab ee3c 976f 393d ceb5 153c
00000360: 171b 00bc 8193 8f3d a30e ee3c 3051 343d
00000370: 2f90 343c ccb7 0abc 93b5 cc3c 0185 b1bc
00000380: a672 37bc 3c6a 143c af86 203d 0aba 203d
00000390: 2faa 7ebd 2542 0f3d bced 0f3c 47cc 75bd
000003a0: 6cc8 53bc bb6d 56bd cdbe 553d 957d 0c3d
000003b0: e8c1 283d 5a31 febb 8567 dcbc e88d 4ebb
000003c0: c171 45ba fd04 3cbc 06d7 393b 8bb8 913c
000003d0: 1115 2dbd d926 6b3d e941 383d a095 86bd
000003e0: 1b3a 993c a055 113d df54 93bc b62d 4cbd
000003f0: 412a 3b3d 91cc 8d3d 3b9b 1e3d 9693 053d

net.4.weight f4 [1, 256]
-0.13025683 -0.15220383 -0.11501754 0.044507995 0.071510516 0.14518929 -0.08807042 0.18896694
-0.06824695 -0.04711278 0.0807298 0.111975186 -0.06800722 -0.0041564642 -0.008498332 0.065167546
-0.04388852 -0.086958736 0.033462163 0.15659826 -0.13481934 0.067939065 0.14695747 0.07395028
0.08700324 -0.06871362 -0.071850464 0.26919174 0.019918231 0.0975688 0.10728919 -0.09095673
0.09818547 -0.075391024 -0.07523819 -0.046216704 -0.091992825 0.053036783 0.026894422 0.07039645
-0.23395726 -0.0967403 -0.12543996 0.14290722 -0.02790305 -0.18446735 -0.015555449 0.18116745
0.14638068 0.0478812 -0.13142137 0.09399587 -0.1334455 -0.10886406 -0.12803212 -0.085697405
-0.055187065 -0.09153044 0.07388292 -0.15639172 -0.035379466 -0.0075920527 0.015634032 -0.058466624
-0.26009825 0.108121656 -0.086485885 0.033640705 -0.12863429 0.022150889 0.018150136 0.13925377
-0.07630547 -0.0088065425 -0.08364835 -0.06908751 0.011692783 -0.033851814 0.1983022 0.04150462
0.02609776 0.06147489 0.028605714 -0.040062554 0.009873752 -0.23996721 0.015960615 -0.033780888
-0.12285701 0.029556943 0.06550282 0.05924741 -0.009949451 0.10112608 -0.019507129 -0.22856115
-0.009677608 -0.02615485 -0.05139108 0.09807806 0.12547636 -0.010686785 0.029433664 -0.15664577
-0.0066936454 -0.093615726 0.02714772 -0.0480799 -0.07005288 0.022378525 -0.017804574 -0.1874368
0.17405564 -0.03080584 0.13481063 -0.08668187 0.15658325 -0.037878584 -0.06943702 -0.25400373
-0.09512784 0.07454756 -0.1366139 -0.010820311 0.14870961 -0.04326771 -0.044594977 -0.020771738
-0.017686218 0.07683543 -0.10370531 0.021332147 -0.026376892 0.0398935 0.16946326 0.12711509
-0.09610743 0.16220458 0.0709933 -0.16767229 0.13290715 -0.06238812 -0.028913116 -0.085194945
-0.17540744 -0.13968162 0.020052144 0.02158585 -0.07109131 -0.050338764 -0.121942714 -0.029166758
-0.05833038 -0.019621657 -0.0726038 -0.059830304 0.102393016 -0.10053657 -0.034613743 0.029113892
0.08793975 -0.03503762 0.017949518 -0.12844814 -0.049051516 0.13883513 -0.002617077 0.0992808
-0.17634721 0.045025814 0.08966296 -0.08710344 0.14532197 0.06715453 0.031168794 -0.13372675
0.18870169 -0.0220493 0.16359061 -0.10865056 -0.10653828 0.011376669 -0.017787077 -0.02223492
0.08453656 -0.08690171 -0.08745491 0.123600855 0.0008157406 0.12784745 0.06530961 -0.09347529
0.033332843 -0.02798146 -0.12707862 -0.00028725987 0.10136416 0.118607596 0.090491675 0.11027328
-0.013377569 -0.15508252 -0.016074207 0.13113394 -0.05350829 -0.03055859 0.015671104 0.16330229
-0.040290453 -0.12105765 0.012069852 0.07096937 0.014914126 -0.055549204 -0.09892887 0.09794214
-0.049866363 0.060085136 -0.1554171 0.10737904 -0.010903504 0.038843155 0.012317713 -0.066273384
-0.12792282 -0.028069556 -0.015844882 -0.02845594 -0.12387811 0.06709947 -0.06207595 -0.06384115
-0.04050245 -0.015381457 0.07239466 0.29818845 0.043707915 0.021106634 -0.007739202 -0.100443386
0.020890737 -0.07211516 0.12162827 -0.05844026 -0.07036841 0.086112306 0.25091353 -0.1764298
0.1616857 0.0140411835 0.013421758 -0.091438435 0.18568851 0.00973208 -0.062245626 -0.02745687
00000000: 0c62 05be 52db 1bbe 518e ebbd 044e 363d
00000010: 1b74 923d 80ac 143e 445e b4bd 8d80 413e
00000020: 0fc5 8bbd 55f9 40bd aa55 a53d 3f53 e53d
00000030: 5f47 8bbd f332 88bb 973c 0bbc 9076 853d
00000040: 73c4 33bd 6c17 b2bd 9f0f 093d 4b5b 203e
00000050: 150e 0abe a323 8b3d 057c 163e 3f73 973d
00000060: c12e b23d bab9 8cbd 5626 93bd 80d3 893e
00000070: 8f2b a33c 27d2 c73d 6fba db3d 8647 babd
00000080: 7715 c93d 9c66 9abd 7b16 9abd ba4d 3dbd
00000090: bc66 bcbd 193d 593d b151 dc3c 042c 903d
000000a0: 7e92 6fbe c71f c6bd 5573 00be 4556 123e
000000b0: f094 e4bc 02e5 3cbe 48dc 7ebc f683 393e
000000c0: d1e4 153e 141f 443d 5393 06be e880 c03d
000000d0: f0a5 08be 1ff4 debd da1a 03be 1f82 afbd
000000e0: d50b 62bd 5074 bbbd ee4f 973d 2725 20be
000000f0: 0fea 10bd c1c6 f8bb f112 803c b37a 6fbd
00000100: 992b 85be e36e dd3d 831f b1bd d6ca 093d
00000110: b5b8 03be c875 b53c 98af 943c 8a98 0e3e
00000120: 0b46 9cbd 5149 10bc d34f abbd c17d 8dbd
00000130: 1693 3f3c 33a8 0abd bb0f 4b3e c000 2a3d
00000140: f8ca d53c 18cd 7b3d 8856 ea3c a218 24bd
00000150: 84c5 213c f7b9 75be d6bf 823c d45d 0abd
00000160: 759c fbbd 6721 f23c 5826 863d 6aad 723d
00000170: 0603 23bc 311b cf3d 6acd 9fbc ef0b 6abe
00000180: d48e 1ebc b242 d6bc 747f 52bd 26dd c83d
00000190: e07c 003e a017 2fbc de1e f13c c067 20be
000001a0: 5e56 dbbb 9ab9 bfbd e564 de3c 6eef 44bd
000001b0: e277 8fbd 2b53 b73c e6da 91bc 6fef 3fbe
000001c0: a43b 323e 875c fcbc cc0b 0a3e 4486 b1bd
000001d0: 5c57 203e 9326 1bbd ff34 8ebd c70c 82be
000001e0: 63d2 c2bd 64ac 983d 84e4 0bbe ac47 31bc
000001f0: 5547 183e 7b39 31bd 39a9 36bd 7e29 aabc
00000200: b0e2 90bc e55b 9d3d 7363 d4bd c1c0 ae3c
00000210: 5a14 d8bc 5e67 233d c787 2d3e 752a 023e
00000220: f9d3 c4bd f518 263e ef64 913d 49b2 2bbe
00000230: d018 083e af8a 7fbd 33db ecbc b07a aebd
00000240: 029e 33be b308 0fbe 6544 a43c cfd4 b03c
00000250: 5298 91bd 0530 4ebd 1abd f9bd 20ef eebc
00000260: d6eb 6ebd 99bd a0bc 4db1 94bd 9f10 75bd
00000270: 6eb3 d13d 1ee6 cdbd 24c7 0dbd 4280 ee3c
00000280: c119 b43d 9c83 0fbd de0a 933c e987 03be
00000290: 3eea 48bd cc2a 0e3e 4483 2bbb bb53 cb3d
000002a0: 5d94 34be fd6c 383d 37a1 b73d 4a63 b2bd
000002b0: 48cf 143e 5088 893d b355 ff3c aaef 08be
000002c0: 043b 413e bca0 b4bc 4c84 273e 2f84 debd
000002d0: be30 dabd 3565 3a3c 34b6 91bc 0226 b6bc
000002e0: 8121 ad3d 86f9 b1bd 8f1b b3bd 7222 fd3d
000002f0: 6dd7 553a 71ea 023e 0bc1 853d f96f bfbd
00000300: 0588 083d 6039 e5bc e620 02be 5e9b 96b9
00000310: 0398 cf3d 8ae8 f23d b353 b93d f5d6 e13d
00000320: 972d 5bbc f4cd 1ebe 0eae 83bc fa47 063e
00000330: 822b 5bbd 0256 fabc b060 803c b738 273e
00000340: 9a07 25bd 13ed f7bd a1c0 453c 6458 913d
00000350: 615a 743c 9087 63bd 389b cabd e495 c83d
00000360: ac40 4cbd d51b 763d a925 1fbe 8be9 db3d
00000370: 9ca4 32bc 001a 1f3d 3cd0 493c 57ba 87bd
00000380: 33fe 02be 20f2 e5bc 20cd 81bc 6e1c e9bc
00000390: ceb3 fdbd 726b 893d 5a43 7ebd 26bf 82bd
000003a0: e6e5 25bd 8202 7cbc a743 943d 28ac 983e
000003b0: 1207 333d d2e7 ac3c 2299 fdbb 43b5 cdbd
000003c0: 0d23 ab3c 1db1 93bd 3e18 f93d 0e5f 6fbd
000003d0: 501d 90bd a65b b03d bd77 803e 03aa 34be
000003e0: f090 253e fe0c 663c efe6 5b3c 1344 bbbd
000003f0: 2125 3e3e 4d73 1f3c 45f5 7ebd 3bed e0bc
