ippc/job/offline/weights/value_models.pt (torch, 598722 bytes, 10 tensors)

value_func.0.weight f4 [256, 31]
00000000: 241f 91bd d5e6 c73e 6286 b6bd 7376 093e
00000010: 00ee a0bd 4bcd ebbd 3338 01be b404 0cbe
00000020: 30c9 f93e b0e5 753e dd0d ffbc 771b 8fbe
00000030: 5922 1e3e d340 b7bd a431 83be dcaa 023f
00000040: 0446 0dbe b891 f43e 6c43 45be 690f 003e
00000050: e6dc 993e 8721 11be 6c27 843e 068f b8be
00000060: df3f 0fbd 7c62 0bbe 14dd 0c3f ab8a c338
00000070: f30b 803e a623 ea3d a9cc 863e c064 433d
00000080: 8ae4 c63e 423f 953e 0e8b a03e 11e7 5a3e
00000090: 4168 d8bd cdb1 64be 707f 9e3e 3b3a 9d3e
000000a0: 7d4e 0abb 2316 d2be de53 953e 7d3d 363e
000000b0: 4c53 ccbd 7b28 9e3e 7d97 0d3b 67b3 023d
000000c0: 0f38 863e 851d e0bd 2b1d ac3e 0aab e6be
000000d0: d3d9 363e c1a4 db3e 01bb c43d 614f 81bd
000000e0: e522 74bc 68b0 8cbe e9f6 153e 2ef9 aebe
000000f0: dcb3 393d 405e 0e3e a8fe b43e e913 29be
00000100: d9f9 b7be 5f00 1b3e 7880 043f 581e 9dbe
00000110: 7a2f a9be 36b7 bc3e 7d3d 833e 9ab5 e53b
00000120: 4dc6 ae3d 2118 203f 5a06 a4bd 4817 1abe
00000130: b0d1 afbc 05db 2abe a2a6 e4be a951 9a3e
00000140: b9be d73b 0aba 4f3d 0138 31be 3328 5b3c
00000150: 690b a2bd 6f9d b33e 618c 423e be8b 8b3d
00000160: e03c e9bc dc3e 27bf 5be5 d4be 6783 733d
00000170: c484 8a3d d3f2 263e 1bef c83e adb2 01be
00000180: 33a3 493d b173 31be 7ef0 adbd 263e d63d
00000190: ba4d 2a3e 22da 2d3e d9bb d4be 2983 8cbe
000001a0: 4b3e d4bd 676e b6bd ba5d 06bf 6f8a c23e
000001b0: abca d4be 0259 22bf b477 4f3e c74d d83d
000001c0: a2b0 5fbe f07d 1cbe 2e83 b13e 25d3 7bbe
000001d0: e73d 2f3c c5b3 a13d 78f3 673e ee73 0dbd
000001e0: 3378 273e 2189 583e 39c2 7ebe 0485 c93c
000001f0: 5947 cdbb 0ac6 c83e 8c95 6e3e 4d5e b7be
00000200: 6670 87be 40cf 77bd 1863 06be d659 5c3e
00000210: ae7b 2abe 5359 e53e 8675 6cbe f1e9 233e
00000220: 9246 f63e d40f 2d3f f7be f43d 8a44 33be
00000230: 4935 b13d d8b4 0cbe e393 50bd 9bc7 35bd
00000240: f8e4 7b3e c69a b6bc 6b52 f9bd c259 83be
00000250: 9f15 25be 5c15 f13e 00cf d93e dbf9 bdbe
00000260: dbb0 403e 2efb 85be 8b79 833d 05e4 8cbd
00000270: 8bd7 a93e c76b 023f 36cd 673e dc96 9d3d
00000280: 5bc2 f73e 4ef7 13be 0fac c53c ee9b 8fbd
00000290: ed4a 563d c0f2 81be 8fba 6abe 9129 b2be
000002a0: 25d1 973e 6203 8bbe 1839 fcbe ef9c f4be
000002b0: 3cf3 d7bd fa73 0d3e 5efa 12be 5a42 b63e
000002c0: 0bee b93e ef2e c33d 9cb8 91be 30d4 e53d
000002d0: 29f6 07bc 78da 22bf be24 d03e 3780 1a3f
000002e0: 6341 513d f690 3c3e 7040 3ebf 6702 0cbe
000002f0: 6181 553e b9f1 743e 82ef a73d f429 043e
00000300: 9b29 f03d 2d3b 3e3e ca6a 2c3e 6c85 9c3c
00000310: 61ec 43bd 086b 51bd ff2a 8e3e 4585 6fbe
00000320: 4a02 c73c ca9d 123f 5919 9fbd c7d5 d13d
00000330: b57d 2dbe 889c 733e 8a7e 323d 02ff ecbc
00000340: 6f33 b7bd 43c1 1e3e 0528 08be 6e61 0c3f
00000350: 8158 223f 3239 fd3d f4e7 10be b098 c6bd
00000360: 0747 3ebd 2a6b 63be 604b 543e 76b7 f7bd
00000370: ca26 aa3d 4b41 063d 4547 b13d 1593 993e
00000380: 0a2c 953c 371c 04bd eb87 14bf d1de 903e
00000390: 11a0 08bb 2bab 323e 7856 ae3e f544 d1bd
000003a0: a981 00be 390f f83b c694 a43e 2b1b 4bbe
000003b0: f32c 24be 4af6 6cbe e122 65be 9c16 8a38
000003c0: 01b3 80bd 8258 fd3e 5e6d c43e 74e4 b23d
000003d0: 86fb b63e c2cd 8a3c 57d4 4e3e 0a31 2bbe
000003e0: 8a74 58bd 9ed8 1ebe c7fa 0bbe 4cc0 893e
000003f0: bcdb 8f3b 969b eebe 4648 043f d65a 04bf
-0.07086018 0.39043298 -0.0891235 0.13424091 -0.07857895 -0.11513766 -0.12619095 -0.13673669
0.48786306 0.240134 -0.03113454 -0.27950642 0.1544279 -0.08947911 -0.2562381 0.5104196
-0.1379624 0.47767425 -0.19264 0.12505879 0.30051345 -0.14172946 0.25811327 -0.36046618
-0.03497302 -0.13611788 0.5502484 9.3241535e-05 0.25009117 0.11432581 0.26328018 0.047703505
0.38846236 0.29149824 0.3135609 0.21377207 -0.1056676 -0.2233345 0.30956602 0.3070849
-0.0021103912 -0.41032514 0.29165548 0.17796893 -0.09976825 0.3089026 0.0021605187 0.031909373
0.26214644 -0.109431304 0.33616003 -0.45052367 0.17856531 0.42899135 0.09605981 -0.063139684
-0.014900898 -0.27478337 0.1464497 -0.34174484 0.045337543 0.13903141 0.35350537 -0.16511501
-0.35932806 0.1513686 0.5175853 -0.30687213 -0.33044034 0.3685853 0.2563285 0.007010174
0.085339166 0.6253682 -0.08009024 -0.15047944 -0.021462291 -0.16685112 -0.4465838 0.30140427
0.006584015 0.05071453 -0.1730652 0.013376283 -0.079123326 0.3508105 0.18998863 0.06813763
-0.02847141 -0.6533029 -0.41581234 0.059451487 0.06763604 0.16303568 0.39244923 -0.12665816
0.049227905 -0.17329289 -0.08493136 0.104610726 0.16631213 0.16977742 -0.41549566 -0.27443817
-0.10363444 -0.08907776 -0.52486765 0.3799624 -0.41560873 -0.63417065 0.20260507 0.1056171
-0.21844724 -0.15282416 0.34670395 -0.24592264 0.010695911 0.078956164 0.2265147 -0.034534387
0.16354446 0.2114606 -0.24878778 0.02459956 -0.006264609 0.39213592 0.23299235 -0.35814133
-0.2645294 -0.060500383 -0.13123739 0.21518645 -0.16648743 0.4479471 -0.23091707 0.1600721
0.48100716 0.67602277 0.11950486 -0.17506614 0.086527415 -0.13740861 -0.050922286 -0.04437981
0.24599063 -0.022290599 -0.12173923 -0.25654417 -0.16121529 0.47086608 0.4254074 -0.37104687
0.18817465 -0.26168197 0.06419667 -0.06879429 0.3317226 0.50945705 0.22636876 0.0769479
0.4839047 -0.14449808 0.024129895 -0.07012163 0.05231755 -0.25380516 -0.22922729 -0.34797338
0.29651752 -0.27151018 -0.4926231 -0.4777598 -0.1054444 0.13813773 -0.1435332 0.35597497
0.36314425 0.09530436 -0.28461158 0.11222112 -0.008298435 -0.63614607 0.40653032 0.6035189
0.05108775 0.18414673 -0.74317074 -0.13672791 0.20850135 0.23920335 0.08199979 0.12906629
0.117266856 0.18577261 0.16837612 0.01910659 -0.04783285 -0.051127464 0.27767178 -0.23390682
0.024293084 0.57272017 -0.077685066 0.10245853 -0.16942485 0.2379018 0.04357771 -0.028930191
-0.08945357 0.15503411 -0.13296516 0.54836166 0.63416296 0.12364425 -0.14150983 -0.096970916
-0.046454456 -0.22208849 0.20731878 -0.12095539 0.0830818 0.032777112 0.08656172 0.29995027
0.018209476 -0.03225347 -0.58019894 0.28294995 -0.002084736 0.17448108 0.34050345 -0.10218231
-0.12549461 0.007570174 0.32144755 -0.19834583 -0.16032772 -0.23140827 -0.22376586 6.584564e-05
-0.06284142 0.4948159 0.3836469 0.0873498 0.35738772 0.016943816 0.20198189 -0.16717926
-0.052845515 -0.1551232 -0.13669883 0.26904523 0.004390208 -0.46603078 0.5167278 -0.51701105

value_func.0.bias f4 [256]
00000000: df48 dfbd 32af e4bc 4730 cc3d 9138 0fbe
00000010: 53f0 e13d b2dc 3d3e 7d59 0a3e 3cad 12be
00000020: 03e0 c3bc 5ed9 10be 27f9 fabd 65e7 223e
00000030: 56d0 173e 614e 153e 6cf9 4fbe de55 0d3d
00000040: 4b44 aebc cd89 163d f669 493d a57f 5f3e
00000050: b3ab c8bc 4dbb bbbd 5bb1 d4bd 54d7 df3d
00000060: a1fb 68bc da01 fabc bdcf 4fbe 562b edbd
00000070: d0ae f13d 6db7 f4bd cae2 8f3d 50a6 f8bd
00000080: edd4 823d 7a53 8bbd 862e 0c3d f4b8 043e
00000090: df2f 1abd ddf4 663d 55f1 1a3e c0a6 0fbe
000000a0: 0b07 f13c f0fe 52be 96c9 67bd 5b4a 37bd
000000b0: f777 893d 140e 853e 445d 3cbd dabd 703d
000000c0: efa9 a03d b708 cfbb d1ce 143e c978 04bd
000000d0: 40b4 f2bd 1362 ae3d 5179 97bd d1bf 1f3e
000000e0: ddc0 b43d 0ebf 753c b55b 93bd cea3 abbd
000000f0: 891a 4dbe 3c5f 293e c1fc a8bd 3d43 62bd
00000100: 8555 49be 72b5 4c3e 105e c1bd 2403 603e
00000110: e460 38be 6fb9 bc3c 3cb9 c6bd c188 f93d
00000120: ae39 553e 1d11 943d 3c27 133e 6ff4 563d
00000130: 9b38 8a3b f68d 0a3e 0824 d33b b415 4c3e
00000140: bb41 eb3d ca09 debd 0ce8 e4bc a528 253e
00000150: f2c6 92bd efdf 0dbe 71ca 47be 7933 b2bd
00000160: 4bcb d5bc e770 8a3c 34e5 313e fdd9 223e
00000170: 1723 d33d 8d0a fd3d ac8e 30ba c59c 343e
00000180: c5e7 783d eca5 873d 367c 03be 7fa7 403e
00000190: 4d10 723e e809 16be 790d dc3d ab29 d53d
000001a0: 1cab 18bd 7df8 183d b181 bc3c 4b16 5cbd
000001b0: f113 843c 7b4a e9bd 57e9 663c 3c56 9d3d
000001c0: a75b 083e 31ea 40be 8be5 0b3e 386a 61bc
000001d0: 8635 b4bd f6bd 833e 2383 e73d 8bb1 f4bd
000001e0: ba1e fdbd e6f3 b33c 72ad a2be b5b2 fc3d
000001f0: 0805 3cbd 97bc ea3d 9eeb 4abe d80f 333d
00000200: 03d5 f53d f329 dbbb a660 653e 34ee 08bc
00000210: 7f91 84bd dbe9 883d 45db 893c 70f1 503d
00000220: b8a6 e8bd 5598 8f3c 07ab 50be edad f13d
00000230: 5348 863d 7868 bebd 7a46 e93d 1815 143e
00000240: 6836 80bd 4967 ed3d 4557 043e c0c5 96bd
00000250: 5450 cabd bea4 9ebd 3880 b83d 8abf 2c3e
00000260: 05d0 1b3e 524c ec3d 0cae 4d3e dcdc 133e
00000270: e77d 243d 4e72 2d3e 41a1 0a3e ad0c 29be
00000280: b8dc 063e 842c 32be 6690 5a3e 4587 e43d
00000290: f4e1 fb3d 8dce 2abd d747 15bd dc4b e9bd
000002a0: 0004 a63d e603 013e bd79 bb3d 8000 e4bd
000002b0: f6ab fabd 74f8 2fbd 0884 37be 903f 2f3d
000002c0: 3785 033e 60bb 813d 8847 2b3e f18b 073e
000002d0: 576b 913a 49d8 ba3d a306 183d 82b4 92bc
000002e0: e47e 403e 5126 ce3c f777 493e 59f8 973c
000002f0: 2fba 69bc 9825 c83a b9de e4bd f9b0 a93d
00000300: 37c5 013e 4042 363e 49e8 103e 0962 2d3e
00000310: 7b25 cb3d 1576 b83d a6a9 b7bd 7eb0 1bbe
00000320: cf01 ccbd 93c4 3dbe 4f48 523d c9fc 8b3d
00000330: ecb6 65bd 03df 093e 34a1 80bd 7e43 c5bd
00000340: 4c37 943d 5d2f 8a3c 89da cdbd 0795 d83c
00000350: cdde 073e 4932 36be 138f 5f3e bba4 dc3c
00000360: 37f5 e33d 2ee5 a9bd 3b2e 953d c531 89bc
00000370: 7e1b 87bd 461a 2bbe 42bd d53d 8443 ad3d
00000380: e5d9 db3d 1973 c13d 8fca 99bd 6dcd 7e3d
00000390: 9ee1 e93d 33ed 0b3e e1a8 463d bc5d 4f3e
000003a0: dd80 bc3d 0770 c2bd 3383 e63c 8cbf 893d
000003b0: aa53 913d 6ed0 143e 7e8c 87be b2fe 313e
000003c0: 1646 b03d 47f6 f13d 3c6f b43d 50ef 06be
000003d0: 076c f73d 9a00 2b3e 04d1 49bd 4cbd bf3d
000003e0: 8fe1 943d 6c79 853d 518c 503e 2dff 093e
000003f0: aec8 b33c 93b8 ae3d fc33 333e 469b 75bd
-0.10902571 -0.02791557 0.09970146 -0.13986422 0.11032166 0.1854122 0.135107 -0.14323896
-0.023910528 -0.14145419 -0.12254553 0.15908583 0.14825568 0.1458068 -0.2030999 0.034505717
-0.021272799 0.03675251 0.049173318 0.21826036 -0.024495935 -0.09166584 -0.1038539 0.109297425
-0.014220149 -0.030518461 -0.2029409 -0.11580531 0.11800921 -0.11949048 0.070256785 -0.121410966
0.063882686 -0.06803031 0.034224056 0.12961179 -0.03764331 0.056385864 0.15131123 -0.14028454
0.029422304 -0.20605063 -0.05658873 -0.044748645 0.067123346 0.25987303 -0.045987383 0.058774807
0.07844912 -0.0063181776 0.14532019 -0.032341752 -0.11850786 0.085148 -0.07396186 0.15600516
0.08825848 0.014999164 -0.07195226 -0.08380853 -0.20029654 0.16540235 -0.08251334 -0.055239905
-0.1966153 0.19991091 -0.09441769 0.21876198 -0.18005711 0.02303764 -0.097032994 0.12184287
0.20822784 0.072298266 0.14370435 0.052479204 0.0042181737 0.13530716 0.0064435042 0.19930154
0.114871465 -0.10841711 -0.02794268 0.16128786 -0.07166852 -0.13854955 -0.19510819 -0.08701224
-0.026097914 0.01689954 0.1737259 0.15903468 0.10309427 0.12355528 -0.0006735127 0.17637928
0.060767908 0.06623444 -0.12840351 0.18813895 0.23639031 -0.14652216 0.10744757 0.10408338
-0.037272558 0.037346352 0.02301106 -0.053732198 0.01612279 -0.11391159 0.0140937185 0.076824635
0.13316213 -0.18839337 0.13661782 -0.013758235 -0.08799271 0.25730866 0.11304309 -0.11947926
-0.12359376 0.021966886 -0.31772953 0.12338773 -0.045903236 0.11461752 -0.19816443 0.04371628
0.120035194 -0.0066883503 0.2240015 -0.008357573 -0.06473064 0.066852294 0.016828189 0.051011503
-0.11359924 0.017528692 -0.20377742 0.11800752 0.065567635 -0.092972696 0.113903955 0.14461172
-0.06260377 0.11591966 0.12923916 -0.073619366 -0.098786026 -0.07746266 0.09008831 0.16869941
0.15216072 0.115379944 0.20085925 0.1443972 0.040159132 0.16938135 0.13538076 -0.16508742
0.13170135 -0.17399794 0.21344146 0.11158613 0.122989565 -0.04170089 -0.036445465 -0.11391422
0.08106232 0.12599143 0.09154079 -0.11132908 -0.1223983 -0.042961553 -0.1792146 0.042785227
0.12843786 0.06334567 0.16726506 0.13236977 0.0011094612 0.09123284 0.037115704 -0.017908338
0.18798405 0.025164755 0.19674669 0.018551039 -0.014265581 0.0015269993 -0.111752935 0.08285708
0.12672888 0.1779871 0.1415111 0.16931929 0.09919258 0.09006897 -0.08967905 -0.15204045
-0.099612825 -0.18532018 0.05133849 0.06835324 -0.05608265 0.13463978 -0.06280747 -0.09632014
0.072371095 0.016868288 -0.10051448 0.02643825 0.13268586 -0.1779262 0.21831922 0.026934018
0.111307554 -0.08295666 0.072842084 -0.016747365 -0.065970406 -0.16709241 0.10436489 0.08460143
0.107349195 0.09445781 -0.07509338 0.062207628 0.11419986 0.13664703 0.0485009 0.202506
0.09204266 -0.09494024 0.028138733 0.06725988 0.07096036 0.14532635 -0.26474375 0.17382315
0.08607118 0.11814552 0.08810279 -0.13177228 0.120811515 0.16699448 -0.0492716 0.093622774
0.072695844 0.065173 0.20366026 0.13476248 0.021946277 0.085312985 0.17500299 -0.059962533

value_func.2.weight f4 [256, 256]
00000000: 12d8 bb3a dc04 eabd 548e 67be c96a 363d
00000010: 8c86 433e b419 4b3c e19d 653d 089f fb3d
00000020: 1f23 7cbd 8705 9a3c c008 cbbd 77ec f33d
00000030: 2782 37bd 1e73 76bc 1db3 053e c99e 14be
00000040: 3bbc d1bd bd89 de3d ce56 253d 7b80 0bbe
00000050: 0509 10bd a752 07be b2b9 a3be f879 00be
00000060: a404 c2bd c04e 59bd b53c 94bd 9f1f 9cbb
00000070: 1eb3 20bc a1a3 023e 087b f03c ab9f c53b
00000080: 2309 303d a5be 3a3d ddcb 603e 482a 733d
00000090: e9a5 15bd a325 d23c a917 84bd 17da d33d
000000a0: 430b c33c a0b4 6abd fe66 c2bd eb28 fe3d
000000b0: 4854 033d aba0 16bd 10eb 733c 8b37 903c
000000c0: 449b a83a 8873 85bd 21d3 1d3e c2d0 c3bd
000000d0: c5e4 f8bd 148e 633d d71c a53c 4b0e 82bd
000000e0: 4f5d bbbd d74a 23bd f138 1ebe 7e49 943d
000000f0: 5c90 c2bc fa35 90bd e85b d5bd 5189 073d
00000100: c6e6 b93d 64c9 c7bd af0a 9fbd d2d9 afbd
00000110: f2f2 c93d 4211 823d ec66 523d b2bf dfbc
00000120: a68b dbbb 04f1 013c a97c 013d af90 0dbe
00000130: 8f35 783e 55b6 133e 75a8 9cbc 2025 ee3d
00000140: c874 b0bc cb7e 0abe 3338 43be e855 33be
00000150: 523c b2bd 74c3 1bbd 730c da3c 208c c3bd
00000160: 97b4 d53d 6ae8 27bd 1bb3 a03d 0cdb eebc
00000170: bf63 653d 3dc2 333e 70ed 8a3d 6a94 eabc
00000180: 4712 673d e21e 08be 7488 b43d 4ad2 59be
00000190: f8ff bd3d 992a 933d d942 d63d 8666 b0bd
000001a0: f1a7 2fbe 0249 54be 8bf3 49bd 6b8b d0bc
000001b0: 6945 c83c 46a5 b4bc edbf 9bbc 66ad a1bd
000001c0: d017 0e3d 4f5a 543d d6ec 133e fd1e 9dbd
000001d0: 80cb f63c e7e3 51bd 7bb6 c23d b274 9dbc
000001e0: 32d0 25be 3909 123e 0c9a bbbc 8ed6 f53d
000001f0: 995c 9bbd f2b4 633e 4e31 40bd f126 36be
00000200: 9780 d83d 6db3 c73d e9cd 893c 391b 233e
00000210: 94e1 52bd 4701 af3d 9f0d 93bd 3ee6 ecbd
00000220: 73d5 f63a bc0b 5ebe e12a 47bc cf97 7f3c
00000230: 3c09 d9bd bc8a 383e a5fc da3d c38a 913d
00000240: 9209 94ba 05cc 60be 8ebe 913d 5165 163d
00000250: 7736 5abe c93c 3abe b80e 96bd 5a95 fcbd
00000260: 09ad a03d c0b8 86bc e587 183e a648 dbbd
00000270: bade 053d eda1 b5bd 5518 dd3d 2982 1cbe
00000280: 0deb ff3d f78e e5bc 887f 62bd 4ad0 1fbe
00000290: 9576 3bbd 20a9 febc 6e01 f4bd 2e34 5a3d
000002a0: abad f53d a1e8 be3c da2c 9dbd 5ed7 dd3d
000002b0: c7a0 bdbc 08c1 89bd 026b 263e 74c8 babd
000002c0: f406 8e3e 3a54 23bd a04d 8c3d 472c 03be
000002d0: 0ce4 50bd 943f c2bc 929d 50bd 8506 663d
000002e0: d30c e0bd f981 9d3d 182b 803d 397f 0b3d
000002f0: 05e4 da3d b25b 20bc 13e9 093e f25f d93d
00000300: 3b17 723d 3994 0e3e c04a 4ebd 8c56 22bd
00000310: fa1b af3d 6831 5e3d 65b3 603d a3e6 e4bd
00000320: 729e d7bc da2a 6a3d a44b d3bc fbd1 afbd
00000330: e81b 26bd b476 dcbc d760 533e 7574 77bd
00000340: 1ba9 f83c 46a9 3dbe d537 fbbd 7d09 6b3e
00000350: c35e 43bd 4c15 82bd aa5b 813e 9a09 c53d
00000360: 8e75 2cbd 545d b73c 5927 bbbc a96b c5bc
00000370: 5464 2bbd 6a73 2d3e 19a8 a63d 2c36 883b
00000380: 7008 003c 9ce9 383d da1e 453e 602c 4cbe
00000390: 6d21 02bc 214f 26bd 43c2 94bc c90d bdbc
000003a0: bf7d 183e 56c7 5dbc 9696 13bd cd5c c4bb
000003b0: e88e 07be 82ce 903d 2090 f3bd bfa4 f33c
000003c0: 58fe 0c3e bcc1 a9bd 990d 3bbe 05bb 09be
000003d0: 1095 b13c 5b74 b4bd e836 663d 421f 0b3c
000003e0: d6f0 e33d 003d 213c d47b 89bd 9a7e 2dbd
000003f0: a489 ecbc 99e6 323d 448c d0bd 3e89 203d
0.0014331362 -0.11426708 -0.22612888 0.044535432 0.19094294 0.012396265 0.05605877 0.12286192
-0.06155693 0.018801464 -0.09913778 0.119103365 -0.044801857 -0.0150420945 0.13056608 -0.14513697
-0.1024098 0.10866115 0.040365987 -0.1362323 -0.03516485 -0.13215123 -0.31977612 -0.12546527
-0.094735414 -0.053053617 -0.072381414 -0.0047645117 -0.00980833 0.12757732 0.02935554 0.006030997
0.042977463 0.04559197 0.21952768 0.059366494 -0.036535177 0.025652712 -0.06449825 0.10344332
0.023809081 -0.057301164 -0.094923005 0.12410148 0.0320628 -0.03677432 0.014887586 0.01760461
0.0012863656 -0.065161765 0.1541257 -0.09561302 -0.12153009 0.055555418 0.020155353 -0.063503824
-0.091486566 -0.039866295 -0.15451409 0.0724058 -0.023750477 -0.07041545 -0.1041792 0.03308994
0.0907722 -0.09755209 -0.077657096 -0.08586468 0.09860791 0.06350948 0.051367685 -0.027313087
-0.006699997 0.007930998 0.031613026 -0.13824724 0.24239181 0.14425023 -0.019123295 0.11628175
-0.02154006 -0.1352493 -0.19064407 -0.1751324 -0.087029114 -0.038028196 0.026617264 -0.09548211
0.104348354 -0.04099313 0.07846662 -0.029157184 0.05600333 0.17554565 0.06783569 -0.028635222
0.056413915 -0.13293031 0.08815089 -0.21271625 0.09277338 0.07185859 0.10461969 -0.08613305
-0.17153908 -0.20730975 -0.049304526 -0.025457105 0.02444716 -0.022051465 -0.019012416 -0.07894401
0.034690678 0.051843937 0.14445814 -0.07671926 0.030126333 -0.051242735 0.09507462 -0.019220684
-0.16192701 0.1426133 -0.022900604 0.12003814 -0.07586021 0.22236994 -0.04692202 -0.17788292
0.105714016 0.097510196 0.016821818 0.15928353 -0.05148466 0.085451655 -0.071803324 -0.11567353
0.0018831923 -0.21684164 -0.012156219 0.015600159 -0.105974644 0.18021673 0.10692719 0.07106545
-0.0011294356 -0.21952827 0.071164235 0.036717717 -0.21309839 -0.1818725 -0.07327026 -0.12333174
0.07845504 -0.016445518 0.1489559 -0.10707216 0.03268311 -0.088687755 0.107956566 -0.15284027
0.12496004 -0.028022273 -0.055297405 -0.156068 -0.045767386 -0.031086504 -0.11914335 0.05327242
0.11996015 0.023304285 -0.076745704 0.10832094 -0.023147954 -0.06726271 0.16251758 -0.09120265
0.2773968 -0.039875247 0.06850743 -0.12809859 -0.050998732 -0.023711957 -0.05093152 0.05615856
-0.10939946 0.07690806 0.062582195 0.034056876 0.106880225 -0.009787487 0.13467817 0.10614003
0.059104186 0.1392373 -0.050364256 -0.03963332 0.08550258 0.054246336 0.054858584 -0.11176803
-0.02632067 0.057169773 -0.025792904 -0.085849725 -0.040553957 -0.02691207 0.2064241 -0.060413796
0.030354073 -0.18521604 -0.122665085 0.22952838 -0.047697794 -0.06351718 0.25265247 0.09620972
-0.042104296 0.02238337 -0.02284591 -0.024099188 -0.041843727 0.16938558 0.08137531 0.0041568484
0.007814512 0.045144662 0.1925005 -0.19938803 -0.00794254 -0.040602807 -0.018159037 -0.023077862
0.14891718 -0.013536295 -0.03603228 -0.005992508 -0.13238108 0.07070638 -0.11892724 0.029741643
0.137689 -0.08288905 -0.18266906 -0.13450249 0.021677524 -0.088112555 0.056204706 0.008491339
0.1112992 0.009841204 -0.067130715 -0.042357065 -0.028874226 0.043676946 -0.101830035 0.039193384

value_func.2.bias f4 [256]
00000000: 3578 88ba b2a2 fdbc 522d ce3a 5c71 81bd
00000010: 46f1 9f3d 422b ef3c f901 033d ee8f 9b3d
00000020: 2850 84bc 8e1f 323d 4600 03bd 1545 183d
00000030: 56a1 253d a7d1 ba3c 17b5 37bd 8d8e 3dbd
00000040: 9881 1fbb ab54 93bd 6206 a13d 106b 28bd
00000050: f6c0 e13c 036c 8e39 0608 173c 994d ea3c
00000060: 3c16 6b3c 12e8 31bd a17d 6f3c 0335 9f3d
00000070: 9ea4 afbc dfda 2a3b 0218 9c3d 7de9 853d
00000080: ab8d 82bd 1f78 cc3d 3a50 103d 42a9 75bd
00000090: 9acb 75bd 6cec ad3d 1bd8 cbbb 833d 133d
000000a0: e3b9 7e3d a347 813d d21b b33c 7734 af3c
000000b0: 1a2d 233d 6fd5 bebb 0a84 2b3d 5c8e 033c
000000c0: a3d7 78bd ae9e 9bbc e682 ab3d 0f90 ce3d
000000d0: c383 a33c 466d ac3c 9268 af3b e14e e93c
000000e0: 4ba1 2a3d 4b80 73bc 1d53 6e3c f317 5a3d
000000f0: 25a7 b8bb 20cd a4bd a3ce 71bd 7435 89bd
00000100: d9a5 b43d 9218 183d d4db 403c 9304 243c
00000110: 51bb cc3b d4f5 773c f4da 643d eb18 06bc
00000120: 1b3c e73b 1bf5 66bd cbcb 703d 5971 f5bc
00000130: 1d52 80bd 0969 d9bc 9038 ddbc 720e a43b
00000140: 91d9 a53d f9b6 83bd 5c31 38bb 6bf4 cd3b
00000150: c128 00bd b316 78bd 5b49 523d e18d 5f3d
00000160: 7c90 db3c 725d 8fbd 971c 6fbc 0fbf b4bd
00000170: b212 0abd cf9d 083d f58b 643c b91b d53c
00000180: cb79 83bd 6438 02bd b38b 683c 7156 ed3c
00000190: 0cfe f53c 52da 723b 46d5 a33b 1372 57bc
000001a0: 23f4 62bd c41c 723d bbbf 063d 57df 2e3d
000001b0: 4844 263d ffaf 4c3c 3016 3bba 0a27 dfbc
000001c0: 5958 ccba 40b8 21bb 3980 223d 4fa5 513d
000001d0: 697b 44bd 83d0 493d ce68 a03d 113e 733d
000001e0: c3f9 123d 5288 03bd 05d7 a73d 7ea3 cfbc
000001f0: adab eebc be92 a6bc 3b7b d6bc 08d5 753c
00000200: 87fb 603d cce6 363d 870e 463d 5b02 303c
00000210: 19f0 b9bc 9e6b 50bd ce00 333d fc81 9c3c
00000220: 9aae 0bbd c3b9 d23c c5d7 503c 56dd 733d
00000230: d3a5 303d 8f93 01bd 0a34 8cbd 35d2 753d
00000240: dc71 da3d 2e6a 83bd 9607 113d 733a 883d
00000250: 587d 7a3d 4ee1 333c 91c0 11bd 72d1 dd3b
00000260: b0a2 833d cbc3 ec3c 846b 013d f561 6fbc
00000270: 7ac3 413d af4e b9bc 4163 3bbd 344e 44bd
00000280: 7d92 4fbc 08a2 a93d 03d6 5b3d e76c c2bc
00000290: fc0f 35bc 2ac8 0a3c 3e99 4abd 9464 0cbb
000002a0: 9f86 0d3e 3141 993c e8d5 b8bc 3791 763d
000002b0: f682 c83c 55d3 883d 3ca5 b03d 11cb cb3c
000002c0: 9afe 05bc 159b 98bc bed6 593b d434 dd3c
000002d0: 2a59 7c3d a6d5 b9bc 1e28 f73b 7d68 e8bc
000002e0: 4129 19bc e1aa ef3c 28cd c3bb 6a5d 90bc
000002f0: 8298 5dbd 9438 103d 55b2 193c 6e2c aabb
00000300: 78be 06bd f799 393d e1f6 b13c 28a4 2bbd
00000310: 838f 483d 94ba 78bb 85f4 0bbd f1eb 3abd
00000320: ecf0 1abd 7332 47bc 7e81 9abc c005 e6bc
00000330: 664d 3fbd 7695 893c a3e9 ab3b f596 323d
00000340: a5ad 953b d358 3b3d f7ee 923b 7e06 69bb
00000350: e126 573d 0278 663d 84f7 87bd 152a a1bd
00000360: bf1f 96bd 8fb8 883d 2882 213d 2a10 84bd
00000370: 7d58 2f3d 1497 603c ca18 993d 1522 793d
00000380: b106 713d 0538 78bb 690f eebb 762d 61bc
00000390: 1872 9a3d d339 2d3d b1f4 8abc c780 473d
000003a0: 2eaf 2a3d 5457 22bd 424b a03d 7ad7 813d
000003b0: 1ea5 143d e2f4 d53c 6ff2 32bd ebc7 84bb
000003c0: 49cc 39bd 90d6 a23d 3907 5f3c 124b fe3c
000003d0: 6a5d 80bd ecfd 28bc 56cf 453d 0cb2 36bd
000003e0: 924c 513c 5b40 463d edbf c23d 91f3 9abc
000003f0: c290 d03c c7bf fbbc 62fb edbc 8143 a73c
-0.0010411801 -0.030961368 0.0015730059 -0.0632045 0.07809691 0.029195432 0.031984303 0.07595812
-0.016151503 0.043487124 -0.031982683 0.037175257 0.040437065 0.022805048 -0.044850435 -0.046278525
-0.0024338719 -0.071938835 0.078625455 -0.041117728 0.027557831 0.00027164826 0.0092182215 0.028601455
0.014348563 -0.04343421 0.014617355 0.07773783 -0.0214408 0.0026070399 0.076217666 0.06538675
-0.06374677 0.09983849 0.03523276 -0.05997587 -0.060008623 0.084923595 -0.00622083 0.035947334
0.062188994 0.06312492 0.021863852 0.021387322 0.039837934 -0.005823783 0.04187397 0.008029547
-0.060752522 -0.018996563 0.08374576 0.10086071 0.01996029 0.0210482 0.005353042 0.028479995
0.041657727 -0.01486213 0.014546183 0.053245496 -0.0056351596 -0.08046937 -0.059034955 -0.066996485
0.088206954 0.037132807 0.011771161 0.010010856 0.006247916 0.015134294 0.055872872 -0.008184652
0.0070567257 -0.056386095 0.058788102 -0.029961275 -0.06265662 -0.026539342 -0.02700451 0.005006605
0.08098138 -0.06431384 -0.0028105592 0.0062852404 -0.031288866 -0.060568523 0.05133949 0.054578666
0.026802294 -0.07000245 -0.014594219 -0.08825504 -0.033709235 0.033353623 0.013949384 0.026014196
-0.064197145 -0.03179206 0.014193463 0.028971883 0.030028366 0.0037056399 0.0049997894 -0.013149756
-0.05540861 0.059109464 0.032897692 0.042693462 0.04059246 0.012493133 -0.000713679 -0.027240295
-0.0015590294 -0.0024676472 0.039673064 0.05118304 -0.047969256 0.049271118 0.0783249 0.059385363
0.035882723 -0.032112427 0.081953086 -0.025346514 -0.029134596 -0.020333644 -0.026181808 0.015004404
0.054927375 0.0446537 0.048353698 0.010742749 -0.022697495 -0.05088388 0.04370194 0.01910495
-0.03410206 0.025723344 0.012746756 0.059537254 0.043126892 -0.031634863 -0.06845863 0.060014922
0.10666248 -0.064167365 0.035407625 0.06651773 0.061154693 0.01097901 -0.035584036 0.0067693526
0.064275146 0.028901955 0.031596676 -0.014610757 0.04730556 -0.022620527 -0.045748953 -0.047926143
-0.012669203 0.08282858 0.053670894 -0.02373357 -0.011051174 0.008470574 -0.04946255 -0.0021422254
0.13820885 0.018707843 -0.022562936 0.06019708 0.02447651 0.066809334 0.08625266 0.024877103
-0.0081783775 -0.018628636 0.0033239569 0.02700273 0.06160847 -0.022684883 0.007542624 -0.028370136
-0.009348215 0.029256286 -0.0059753843 -0.017622668 -0.05410052 0.035210207 0.009380897 -0.0051932847
-0.03289649 0.045312848 0.021724166 -0.0419046 0.04896499 -0.0037953006 -0.03416874 -0.045635168
-0.037827417 -0.012158024 -0.018860575 -0.028078914 -0.046704672 0.016794901 0.0052463575 0.043600995
0.004567819 0.045739006 0.0044840532 -0.0035556848 0.052527312 0.056266792 -0.06639007 -0.07869355
-0.07330274 0.06675827 0.039430767 -0.064483956 0.042809 0.013707895 0.07475431 0.06082352
0.058844272 -0.0037875187 -0.0072650206 -0.013743749 0.07541293 0.042291474 -0.016962381 0.048706796
0.04167097 -0.039634064 0.07826854 0.06339927 0.03629028 0.026117746 -0.043688234 -0.0040521524
-0.045360837 0.07951081 0.013612562 0.031041656 -0.06267817 -0.010314446 0.048293434 -0.044603392
0.012774603 0.048401218 0.09509263 -0.01891497 0.02545965 -0.030731095 -0.029050533 0.02041793

value_func.4.weight f4 [1, 256]
00000000: 9a32 7bbe 1701 783e 19b6 0cbe 8a01 14be
00000010: 0a2f 21be 34ec 163e 590c 763e 7e40 ff3d
00000020: 55d5 0abe e0ff 69be 549d 47be f01e 9cbe
00000030: 2543 4d3e 483c 4c3e 8f5e 0b3e ce48 26be
00000040: cda9 96be 7d98 61be 92c6 1e3e 83b6 5abe
00000050: ca9d 2f3e ebea 33be 353b 0fbe c1ad 773e
00000060: 2848 87be e81b 0dbe 3ac9 1abe 9460 263e
00000070: ec9a 36be 4656 623e ab82 4e3e d0cd 443e
00000080: 6118 42be 9051 1c3e 420e b1be 92c0 25be
00000090: 9427 b4be 227c 373e fea6 27be 8946 1a3e
000000a0: ea86 e83d 60cd ee3d a10f 293e ed48 243e
000000b0: df72 60be c5f1 20be 0bfd 06be cacc 833e
000000c0: f0c8 27be 0bd5 0f3e 734f 663e 4710 443e
000000d0: 914c 163e 1aa9 54be 9cc5 413e 4c8a febd
000000e0: 2eb6 233e 3cbe 0fbe e470 16be ef5d 153e
000000f0: f483 343e 608c 82be 6b89 1cbe b849 f6bd
00000100: 9ff7 3c3e 4eb3 12be b55a f2bd 1f4c 39be
00000110: ad93 2fbe 319f 37be df3c 53be ddf8 57be
00000120: 1a57 13be e690 5cbe f688 0e3e ded9 f63d
00000130: cc60 79be a1ba 2dbe 73c4 ac3e 01cc 203e
00000140: 4138 6d3e 41a5 6ebe 0d5e 83be 3ea9 0ebe
00000150: 022e 213e f768 8fbe b280 04be 34ae 193e
00000160: 0341 4b3e bf57 3a3e 89e4 373e 9b77 18be
00000170: cafc 6a3e 7176 57be 54f0 64be 2617 463e
00000180: 3806 4fbe c677 27be 4a87 89be dd65 2abe
00000190: d97b 393e 4b4b 5c3e 39c6 68be fc31 223e
000001a0: 39b4 a53e 1fbf 213e 76e2 8dbe e5de 7bbe
000001b0: a899 0e3e 764d 1fbe f529 543e ad32 083e
000001c0: 8fd5 643e 135a f8bc ed0c 473e 8853 233e
000001d0: 0dce 36be 0faa 283e c0bb 503e 77e4 24be
000001e0: 951a a23e 6ed0 73be c3b6 203e 0b66 4ebe
000001f0: 8f3a 39be b21c 663e 8ddd 37be 6882 283e
00000200: a1e9 4a3e d51c 58be 2e19 43be c9b2 07be
00000210: 3455 21be e41e 28be 31ea 293e ab52 26be
00000220: a92a 75be f247 1b3e 88ca 04be c120 24be
00000230: bb3e 11be 9427 b4be f241 6d3e a911 463e
00000240: 7bfc 563e 2a12 19be dcb7 233e dc32 253e
00000250: fb41 063e 3660 403e 8c9e 1dbe 5a4b 2ebe
00000260: 545c 65be a43e 6c3e 8ff4 433e 4ec5 3abe
00000270: fc33 c8be 105a 21be d797 42be e2f7 81be
00000280: 531f 883e 17b3 223e 31bc 6cbe 1026 20be
00000290: 20b5 25be 8479 65be 3c73 3cbe 8684 a9be
000002a0: 0753 323e 2361 753e bd89 0ebe 271f 343e
000002b0: 2ae5 2f3e 8bf4 553e 7baa 0e3e 0329 4d3e
000002c0: 5d26 3fbe efd6 0dbe dae0 263e 834e 363e
000002d0: d945 593e 1baa 633e 28f0 4f3e 93ac 7b3e
000002e0: 4090 29be bb0e 203e 5ef7 3cbe 00fc 3dbe
000002f0: 44e9 31be 8f24 07be 1259 f03d 9626 25be
00000300: fa3d 3bbe 06c7 0fbe 5103 6f3e 0700 d33d
00000310: a7c9 1f3e 5434 043e be85 193e f03f 54be
00000320: 03db 3ebe 0bf5 483e 5c6a febd 54ce 23be
00000330: 3a69 33be 3771 633e 53aa 273e ebcf 763e
00000340: 00c3 4b3e 7d86 0d3e eb09 2abe 84dc 243e
00000350: fdd9 87be 4b01 7e3e 4615 75be 6a0f 3bbe
00000360: 4b84 efbd f2bc 14be e416 8e3e aa82 5ebe
00000370: 9a70 b3be 2049 32be b9da f3bd f5ba d73d
00000380: 3be8 07be cbec 1e3e 4a8f 493e 8bc0 28be
00000390: 5461 573e b266 89be 41f4 213e 87d8 5cbe
000003a0: 697b 88be bcf1 853e 97a5 06be 63f6 aabe
000003b0: 8fdb 193e 3487 483e b14a 39be 8039 90be
000003c0: 6067 2ebe d7f1 473e cbd4 223e cc5e 9e3e
000003d0: 5f74 5f3e c6cf 2c3e 5fd7 85be 15b2 f83d
000003e0: 7941 57be e453 463e c737 283e 7390 32be
000003f0: 66a9 323e 5e05 6abe 133c 283e d31a 6d3e
-0.24531022 0.24219166 -0.1374134 -0.14453712 -0.157406 0.14738542 0.24028148 0.12463473
-0.13557942 -0.22851515 -0.1949361 -0.30492353 0.20045145 0.1994487 0.1361029 -0.1623871
-0.29426423 -0.22030826 0.15505436 -0.21358685 0.17150036 -0.17570083 -0.1398743 0.24187376
-0.26422238 -0.13780177 -0.15115824 0.16247779 -0.17832536 0.22103223 0.20167033 0.19219136
-0.18954612 0.15265489 -0.3458119 -0.16186741 -0.35186446 0.17918447 -0.16372296 0.1506597
0.11353858 0.11660266 0.16509868 0.16043444 -0.2191882 -0.15717228 -0.13182466 0.2574218
-0.16385245 0.14046113 0.22491245 0.19146834 0.14677645 -0.20767632 0.18923038 -0.12428722
0.15987465 -0.14037412 -0.14691502 0.14586614 0.17628461 -0.25497723 -0.15286796 -0.120257795
0.18453835 -0.14326212 -0.11833707 -0.18095444 -0.17146178 -0.1793182 -0.20628689 -0.21091028
-0.14388695 -0.2153965 0.13919434 0.120532736 -0.24353331 -0.16965725 0.3374363 0.15702821
0.2316599 -0.23305227 -0.25657693 -0.13931748 0.15740207 -0.2800977 -0.12939718 0.1500786
0.19849019 0.18197535 0.17958273 -0.14889376 0.22947994 -0.21041276 -0.22357303 0.19344768
-0.20217216 -0.16354284 -0.2686103 -0.1664042 0.1811365 0.21513097 -0.22731866 0.1583938
0.3236406 0.15795563 -0.27711838 -0.24596746 0.13925803 -0.15556893 0.2071913 0.13300581
0.22347091 -0.030316388 0.19438525 0.15949833 -0.1785204 0.16471122 0.20384121 -0.16102777
0.31660905 -0.23809978 0.15694718 -0.20156114 -0.18088745 0.22471884 -0.17955609 0.16455996
0.19815685 -0.21104749 -0.19052574 -0.13251795 -0.15755159 -0.16418034 0.16593243 -0.16242473
-0.23942055 0.15164164 -0.12967885 -0.1602812 -0.14184086 -0.35186446 0.23169687 0.19342674
0.20994751 -0.14948335 0.15988106 0.16132683 0.13111107 0.18786702 -0.15392512 -0.17020932
-0.22398502 0.2307077 0.1913626 -0.18239328 -0.3910216 -0.15757012 -0.19003235 -0.25384432
0.26586398 0.1588863 -0.23118664 -0.1563952 -0.16182375 -0.22409636 -0.18403333 -0.3310892
0.17414485 0.23962836 -0.1391973 0.17590009 0.17177263 0.20894067 0.1393222 0.20035176
-0.18666978 -0.13851522 0.16296712 0.17803387 0.21218051 0.22232859 0.20306456 0.2457755
-0.16558933 0.15630619 -0.18453738 -0.18553162 -0.1737414 -0.1319754 0.11735739 -0.16128
-0.18285361 -0.14040765 0.23341109 0.103027396 0.15604268 0.12910587 0.14992425 -0.20727515
-0.18638234 0.19624726 -0.1242263 -0.15996677 -0.1752061 0.22211157 0.16373567 0.24102752
0.19898605 0.13820834 -0.16605346 0.16099745 -0.265335 0.2480518 -0.23933896 -0.18267599
-0.11695155 -0.14525202 0.2775184 -0.21729532 -0.35046846 -0.17410707 -0.119069524 0.10533706
-0.13272183 0.15520017 0.19683567 -0.164797 0.21033221 -0.26836163 0.15815832 -0.21566974
-0.26656654 0.2616099 -0.13149105 -0.33391103 0.15025161 0.19582826 -0.18094899 -0.2816887
-0.17031622 0.19525848 0.15901487 0.309317 0.21821736 0.16876134 -0.26140878 0.121433415
-0.2102107 0.19367939 0.16427527 -0.17437916 0.17447433 -0.2285361 0.16429166 0.23154764

value_func.0.weight f4 [256, 31]
00000000: 3017 743e e14a 11be 0db9 55be d5fc f73e
00000010: cd33 56bc e45c 2bbe 8230 773e ed72 833e
00000020: b0ca afbe d80b 91be b976 98be 939a 003f
00000030: ace6 81be b269 163d 2740 66be 1aca b53e
00000040: 7b6c bebe 52d0 e33e 2820 63be 6821 3f3e
00000050: 1d9c fc3e e72f 08be d0da 023d fe88 bfbe
00000060: 1388 e8bc 4e65 f3bd 98c4 da3d f0f8 a7be
00000070: 71b1 c9be dee4 7ebd 05ce 633d 7fb4 9f3d
00000080: d430 bfbd c4fd 503e a67c 59be 45ba f9bd
00000090: 18cc 0e3f 7be3 173e 75be e2bd 9b39 81bd
000000a0: 4a05 16be f1f3 d1be 14bd 09bf 8c62 143e
000000b0: cdf2 df3c dce8 353e 5716 f4b9 d71b d33e
000000c0: 3e98 413e 5c95 b8bd 7534 58bf ab5d a4bd
000000d0: f4b6 a5be 52bc 3e3d e923 703d 3943 e03d
000000e0: 3a38 513d acc0 7f3e 6a45 29be 2bea 213f
000000f0: e38e 913e 465c 173e 7f34 94bd eb82 893d
00000100: eba1 47be 96bf 1f3e 62a4 04bf 0071 cb3d
00000110: 5bff 633f c157 273e f751 463e a3ba 14be
00000120: 228c 153c b3a3 713e 8b99 d9be 6cdf 33bc
00000130: dcf4 b13d 2178 e3bc 304a 9abc 9870 0bbe
00000140: 1743 b73e bc46 b73e e1d3 0cbe 10b0 e23d
00000150: acfa 3ebc 562d 52bd e552 2b39 7cbf e63d
00000160: 30b1 ab3b 35c6 a93e 3951 44be 416b c4be
00000170: bf1b e73c cb8a 8fbe 662c 413e dd8f 1d3e
00000180: 7432 553e 5753 ee3d b852 2ebb 2781 2cbe
00000190: 6fd0 71be a437 c83e 1f10 01be fd11 913e
000001a0: 60c5 0abf ad2d 913d 8406 7abe 3782 b4be
000001b0: 83f7 43bd 6d55 95be fa2b 8b3e 72e6 fa3d
000001c0: 2650 1bbd c4ca 06bf d48a 0d3e 98e4 633c
000001d0: 6b20 263e 5d7b 723c 746a b7be 9ec9 9bbe
000001e0: 909b 0c3f 84c6 cf3e af5b e33d 8dab 283d
000001f0: 1e9e 543e 36c8 9c3d ba02 48be 3806 f2be
00000200: 269a 023f a84a 84be a4d2 0dbf 7d34 633e
00000210: c15d f1be 1596 d03d 0b86 cdbe c17c d63e
00000220: 9d0b 4bbe 4e6e d53e ac66 ae3e f3ff dcbb
00000230: 4361 ccbe 478b a1be f432 06be 234a 85be
00000240: a48e 0dbe 589d e03e 5570 60be e693 913e
00000250: a302 10be 05bf f2be 3b65 b73d 204e 783e
00000260: 575b 7ebe a71b 18bf 21e8 3a3e feb4 23be
00000270: b235 4e3e e73d 1b3e 89ec bfbd ca80 bbbe
00000280: f366 03bf 74c8 adbe b422 86bd 30fc a4be
00000290: 481a 9fbd 5da4 be3e 8e4f af3e 15cd 4bbe
000002a0: a934 953d 8a3e 1fbf b42e 663e bc8d b83e
000002b0: 3892 c8bd 1fb2 ec3d 0952 d5be b5bb c5be
000002c0: 1012 a7be 1ddf cdbe a870 d1bd 16a9 dbbe
000002d0: bc95 eb3e de08 3b3f 42ee f13e 1e7f c33e
000002e0: 4d52 1d3c 412b 91be 66e5 b53d 7d3b a33e
000002f0: 86c9 b5be 16a4 853e 829f 673e 1e2d 88be
00000300: 17bf 113f 0fc9 5ebd 741c 6fbe e784 fc3e
00000310: 9e3b 2f3e 0b55 21be 9cea cbbe eb52 8abe
00000320: 2183 5d3e 884a ac3e 6d52 663e 8133 3d3d
00000330: f249 5b3e acc7 0b3e 6bd1 653e 68b3 febb
00000340: 8bf0 b4be dae9 4c3c e36e 2cbe e942 41bd
00000350: f6cf 943e 6280 043f acd5 cc3e 5036 e83e
00000360: 3414 a1be f297 453c f70f 4b3d 38c8 50bd
00000370: 96b8 663c 1043 30be e793 203d 98ee bebe
00000380: 9763 ed3d d8de bebc 4025 6abe 9bef e43e
00000390: 6cbc 8e3d 678b 903e b941 473e 56bc 8a3e
000003a0: 8b37 81be dea2 bd3e d5f6 2cbf fd41 b8be
000003b0: 7292 51be 6bb0 05be 3ae1 33be 405b 293e
000003c0: ee5b bb3e fdaa c7bd 1091 d2bd c401 9bbc
000003d0: 8563 31be 2eaf 92be 12e7 8abe de7d 92bd
000003e0: 2373 813e 25e9 153e ca7b de3d 3641 b6be
000003f0: 2ffa 8cbe 725d b83e 28b3 c03c 949e e4bd
0.2383697 -0.1418872 -0.20871373 0.48435083 -0.013073874 -0.16734654 0.24139598 0.2567362
-0.34334326 -0.2832935 -0.29778078 0.5023586 -0.253713 0.036721893 -0.2248541 0.35505754
-0.3719214 0.44494873 -0.22180235 0.18665087 0.49337855 -0.13299523 0.031946957 -0.37409204
-0.028385198 -0.11884557 0.106820285 -0.32807112 -0.3939319 -0.062229984 0.055616397 0.07798099
-0.09335485 0.20409304 -0.21238956 -0.12193731 0.5578017 0.1483287 -0.11071483 -0.063098155
-0.14650455 -0.41006425 -0.53804135 0.14490718 0.027337456 0.1776461 -0.0004655595 0.41232178
0.18905732 -0.09012863 -0.84455043 -0.08025678 -0.32366145 0.046566315 0.058627997 0.10950322
0.051079012 0.24975842 -0.16530386 0.63247937 0.28429326 0.14781293 -0.07236575 0.06714424
-0.1949536 0.15600428 -0.5181333 0.099336624 0.89061517 0.16342069 0.19367205 -0.14524321
0.009127649 0.23597603 -0.42499956 -0.010978561 0.08689281 -0.027767243 -0.018834203 -0.1361717
0.35793373 0.35796154 -0.137527 0.110687375 -0.0116564445 -0.051312767 0.00016338711 0.112669915
0.0052396283 0.33159032 -0.19171609 -0.38363078 0.028211473 -0.28035578 0.18864593 0.1538691
0.20820028 0.116369896 -0.0026599597 -0.16846143 -0.23614667 0.3910495 -0.12603806 0.28334036
-0.5420742 0.0708879 -0.24416548 -0.35255596 -0.047843467 -0.29166737 0.2718199 0.12250985
-0.037918232 -0.52653146 0.1382249 0.0139094815 0.16223304 0.01479992 -0.35823405 -0.3042726
0.5492487 0.40581143 0.11101472 0.04117923 0.20763442 0.07655375 -0.1953229 -0.4727037
0.5101646 -0.25838208 -0.5539954 0.22187991 -0.4714184 0.10184876 -0.4014133 0.41892055
-0.19828649 0.41685718 0.34062707 -0.0067443787 -0.39917955 -0.31551573 -0.13105375 -0.26033124
-0.13823944 0.43870044 -0.21917851 0.2843315 -0.14063506 -0.4741136 0.08954855 0.24248552
-0.24839531 -0.59417194 0.18252613 -0.15987012 0.2013767 0.15160333 -0.093712874 -0.36621696
-0.51328963 -0.33941996 -0.06549588 -0.32223654 -0.077686846 0.37234774 0.34240383 -0.19902451
0.07285435 -0.622048 0.22478753 0.36045635 -0.09793514 0.115574114 -0.4166415 -0.38619772
-0.32630968 -0.40209284 -0.102265656 -0.4290244 0.46012676 0.73060405 0.4725209 0.3818292
0.009602142 -0.28353313 0.08881645 0.31881323 -0.35505313 0.2610175 0.22619441 -0.26596922
0.56932205 -0.054390963 -0.23350698 0.49320146 0.17112586 -0.15755098 -0.3982743 -0.27016386
0.21632053 0.33650613 0.2249238 0.046191696 0.21414927 0.13650388 0.22443168 -0.0077728517
-0.3533977 0.012506926 -0.16839175 -0.04718295 0.29064912 0.51758397 0.4000677 0.45353937
-0.31460726 0.012060152 0.049575772 -0.050972193 0.014082095 -0.17213082 0.03920355 -0.37291408
0.11591261 -0.02329962 -0.22865772 0.44714054 0.06969532 0.28231356 0.19458665 0.27096814
-0.25237688 0.3703832 -0.67564136 -0.35987845 -0.2046602 -0.1305558 -0.17566386 0.16538715
0.36593574 -0.0974941 -0.10281575 -0.01892174 -0.1732312 -0.28649276 -0.27129418 -0.071529135
0.25283155 0.14639719 0.10863455 -0.35596627 -0.27534625 0.36008793 0.023522928 -0.11163059

value_func.0.bias f4 [256]
00000000: 68c9 bd3c ba66 ef3d d6da 9b3d cdde c5bd
00000010: ad3d ebbd c9ad 403e c931 1a3d 791e 283e
00000020: 710c e5bd 5960 113e 420f acba 4e4c 2f3e
00000030: 167e 3ebe fbc5 b7bd 82b3 443e 7ed3 623e
00000040: eae3 96bd 135a bcbd 94a0 153e 6626 9fbd
00000050: f994 9b3d e9b1 aebd 01db 293e b887 0ebd
00000060: 3799 06bd 83a9 d93d f201 5a3e f4d8 16bb
00000070: b129 523e 7158 813c 7b72 0c3e 07fc 263c
00000080: 603c e5bd 0862 dc3d 67c5 0bbd 65e7 663d
00000090: 98aa e5bd 4e1d a8ba c761 5f3e 2ab2 e23d
000000a0: f697 03bc 79f7 62bd c034 0f3e 0fac 613e
000000b0: ebbc d4bd 66b3 5ebd 926a 093e 37aa 043e
000000c0: 2b21 633c 443e 303e 0456 fc3d 7312 45be
000000d0: 463b d8bd 0386 993b 852b 403d 9dda f83d
000000e0: 46b5 c83c badc 793b 8bd6 6f3e 5917 a8bd
000000f0: 0423 243e 6a15 ac3d 3551 b73d 3f26 0f3b
00000100: b4a9 90bd bb87 e03d 136a 12bc 4da8 223e
00000110: 0635 ba3d d6cd 003e 3d29 573e 29b3 613e
00000120: e207 f1bc 3fda f23d 3bc9 5e3d 706f 223e
00000130: 942c 703d 1f8e a83c 1d35 92bd 4949 bf3d
00000140: 4d24 7e3e 53c6 28be 6774 05be ee62 bd3c
00000150: eb55 d23d 835d 603d 86e5 a3bd 0cf9 c9bd
00000160: 9c8c feba ee20 6e3e 5df7 e7bd 7226 f23d
00000170: 19ce 3dbb f74f 903d 4c17 843d 525b 91bd
00000180: e1b3 2f3e d1cc 48bc 24bc ffbb 8d11 54bc
00000190: 35de 0f3d abce 91bd 9aa0 f03b ad37 e33d
000001a0: e621 fabd 8672 03be 77d5 3c3e 46af afbd
000001b0: f48b 40bb d794 a63d 2396 1eb8 7bd6 153e
000001c0: 61c2 a9bd 0169 0ebe a1ad 1abe 636a d7bb
000001d0: 57da a43d 782b c73d 7cb1 82bd 9b74 c3bc
000001e0: 2c39 f0bc 9665 b13d c1ca b63d 1a44 173e
000001f0: f978 5dbd 40d9 23be 8535 d8bc 1de0 b93d
00000200: 3aa3 1abe e49e 66bd 04d1 a93d 05e8 243d
00000210: 5524 8b3e 3b78 80bd f57b 203e 86cc bfbc
00000220: 15d3 fa3d 0c7f e2bc cccc 0ebd 3260 90ba
00000230: 421d 843e a8d4 213e a690 f5bd 5c2c 6ebd
00000240: e495 13bd 5f8e a83d a81d 70bd ff29 003e
00000250: b156 e2bd 690d 073d 202b 2bbe 98e7 863e
00000260: 0f35 243e a676 08be fd57 1cbd a3c4 f9bd
00000270: 62f6 f83d b2e7 0fbe b57f b63b 71e6 cc3c
00000280: b77a d13d 44f6 a13d f6e9 49be 6907 ccbd
00000290: e4f4 853d 62c7 4d3e 4ee1 f23b 3c11 3ebe
000002a0: bb05 aa3d 2a08 f83c 742f 093e 330e 873d
000002b0: dce6 8f3e 1c11 52bc 7d96 a03d 73b2 47bd
000002c0: f11d 99bb 6860 dfbd 9c28 2e3d d36c 5cbd
000002d0: a163 893b 8960 3f3e fe5d 8e3e 8a59 9dbd
000002e0: e3c6 0bbd f9ce 553b d2a1 8ebd c784 783d
000002f0: 1b53 1ebe 7f86 0cbb 64d3 7cbd 3803 813e
00000300: c5eb 9d3d 1078 6ebe 7c5f bf3c 3af7 a63d
00000310: f004 eb3d 2d58 103e 809a 103e 49f2 443c
00000320: 0353 3d3e 5d73 7fbb 1fa0 7a3e c3f0 61be
00000330: cd0d 573e 1d45 e83d fbeb 87bd 8ef4 78be
00000340: 665b aabd 53d4 bc3c 15e5 743e 1e77 1e3e
00000350: 9f5d 453e 3707 483d 68af 643d 7c81 b93c
00000360: 045b 033e ad38 e23d 0e59 ff3d 9204 ccbc
00000370: 31b8 583e 2eb3 a4bd fe46 3c3e 8cfb 7b3d
00000380: 2bc1 47bd a698 1abe aa42 89bd ea5b c43d
00000390: 96e6 203c 208b bc3d 02e8 c4bd 9dcb 13be
000003a0: e4c7 333e ef08 28be b576 4e3e 041e 2b3d
000003b0: 33b8 6c3d 97da ea3d e2f2 333e 061c b3bd
000003c0: 5efc 3f3e 430d 1f3d 7788 ddbd 5fc6 913c
000003d0: 214d 103e 5e0d 303e 88c2 40be d9d3 2e3e
000003e0: 3f7a 393d c02f 2f3e b1b4 343e 81e5 55ba
000003f0: 5cb9 173d 867b 1ebe 4b73 0fbd 464d 033e
0.023167327 0.116895154 0.07610099 -0.096616365 -0.11486373 0.18816294 0.037645135 0.16417874
-0.11184014 0.1419691 -0.0013127106 0.17118952 -0.18602785 -0.08973309 0.19209102 0.2215099
-0.0736769 -0.09196868 0.14612037 -0.07770996 0.07596774 -0.085300274 0.1658745 -0.0347974
-0.03286096 0.10628035 0.21289805 -0.0023017498 0.20523717 0.015789242 0.13715546 0.010191924
-0.11193156 0.107608855 -0.034123804 0.05637302 -0.11214179 -0.0012826116 0.21814643 0.11069138
-0.008031836 -0.05541179 0.13984966 0.22038291 -0.10387596 -0.054370306 0.1341956 0.12955557
0.013862888 0.17211252 0.12321094 -0.19245319 -0.105581805 0.004685165 0.046916503 0.12151072
0.0245005 0.0038125948 0.23421685 -0.08207578 0.16028982 0.08402522 0.08951036 0.0021842865
-0.07063618 0.109633885 -0.008936423 0.15884514 0.09092145 0.1257852 0.21011825 0.22041
-0.029422704 0.118580334 0.054391127 0.15862823 0.058636263 0.020575581 -0.07139037 0.0934015
0.24818535 -0.16481905 -0.13032685 0.023118462 0.10270294 0.05477668 -0.080027625 -0.09861955
-0.0019420567 0.23254749 -0.11326478 0.11823739 -0.0028961955 0.07046502 0.06449756 -0.07097496
0.17158462 -0.012255863 -0.0078044105 -0.012943638 0.035124023 -0.07119497 0.007343364 0.11094604
-0.12213497 -0.12836656 0.18440805 -0.08578353 -0.0029380294 0.08133858 -3.780996e-05 0.14632599
-0.08289028 -0.13907243 -0.15105297 -0.0065739616 0.080494575 0.09725088 -0.06381509 -0.023859313
-0.029324137 0.08661954 0.08925391 0.14772072 -0.054070447 -0.16000843 -0.026392708 0.09075949
-0.15101328 -0.056303874 0.0829182 0.040260334 0.27176157 -0.06272932 0.15672286 -0.023412954
0.12247292 -0.027648471 -0.03486328 -0.0011014997 0.25803572 0.15803778 -0.1199048 -0.058147773
-0.03603162 0.0823028 -0.058622032 0.1251602 -0.11051691 0.032971773 -0.1671567 0.26348567
0.16035865 -0.13326511 -0.03816985 -0.121957086 0.12156369 -0.14053228 0.005569423 0.025012227
0.10228484 0.079082996 -0.19718155 -0.09962351 0.0654085 0.2009559 0.0074121123 -0.18561262
0.08301874 0.03027733 0.13397008 0.06594505 0.2810582 -0.012821462 0.07841203 -0.048754167
-0.0046727587 -0.1090706 0.042519197 -0.05381472 0.004192785 0.18689169 0.27806085 -0.07683094
-0.03412522 0.0032624586 -0.069644585 0.0606735 -0.1546139 -0.002144247 -0.061725035 0.25197768
0.07710985 -0.23287988 0.02336096 0.081526235 0.11475551 0.14096136 0.14121437 0.012020656
0.18488698 -0.0038978674 0.24475144 -0.220645 0.21001358 0.11341307 -0.066368066 -0.2431204
-0.08318214 0.023050463 0.23915513 0.15475127 0.19273995 0.048835006 0.055831343 0.02264475
0.12827688 0.11045966 0.12468158 -0.024904523 0.21164013 -0.08041988 0.18386456 0.06151919
-0.048768204 -0.15097293 -0.06702168 0.09587844 0.009820601 0.092062235 -0.096145645 -0.14433141
0.17556721 -0.16409658 0.2016247 0.041776672 0.057792854 0.11467474 0.17573121 -0.087455794
0.18748614 0.038831007 -0.10817044 0.017794786 0.14091922 0.17192599 -0.18824208 0.17073001
0.0452826 0.17108059 0.17647053 -0.0008159504 0.037042007 -0.15476808 -0.03502206 0.12822446

value_func.2.weight f4 [256, 256]
00000000: a830 fe3c 5fce 62bd e1b7 163e 6109 bbbd
00000010: 7d48 d33d ea3e a23d 22f4 073c 0841 4b3d
00000020: 0a8f 1abe f27f 4c3d 3e02 33bc 1b9f 02bd
00000030: 5f8e 2c3d 9e21 9e3d 7e49 37be 762e 273d
00000040: 8555 4bbd f14b 60be 970f 69bc 4c0d 073d
00000050: b309 81bc cecb d33c f031 693c ea3e ac3d
00000060: 5897 493d 45eb 153d 8df2 5f3d b2db 5a3e
00000070: c63a 29bd 023a 903d 7fe9 d13d f323 99bc
00000080: 97f1 bcbd 77a9 5ebb afa3 cabd 72be f93d
00000090: 6233 94bd ac0e 0c3e cb25 d13c 278c 3bbe
000000a0: 42bc 02be 9437 acbc 1c23 e43d 5b5c c1bc
000000b0: d2d3 14be 1fa3 98bd 2b95 233e eb5b 01be
000000c0: 93d7 f33d ef57 60bd dfc0 c93c bebe 0fbe
000000d0: 254e 1dbd dfeb 6d3d e604 773d de3e a3bd
000000e0: 0145 85be 8600 073b 109b ac3d 402f c23d
000000f0: 6469 27bd ccd1 e6bc 6669 e4bc 873a 973d
00000100: 0b4d 3d3d 1845 933d 2f51 92bc 27fd f53d
00000110: 8705 8cbd 0e91 633d 9a6f db3d fc32 93bd
00000120: 8a7e f8bc 127a 2d3d 2913 3ebe 746c 41bd
00000130: 5dda 4a3d 9982 1dbc fbc1 87be 08f4 e4bd
00000140: 7a60 073e aea7 bfbd 2944 20be e112 c93d
00000150: 035d 0e3e 3356 22bd 368f 053e 200c 4d3e
00000160: adf1 773d 0934 0a3e 6cdc e63d d808 353d
00000170: 220b 383e d029 063d 4867 d6bc 6d1d 133e
00000180: 2989 403d ceb6 b4bd 3108 b7bd fb65 6c3d
00000190: 73b6 d8bc 3782 673e 4403 e6bc b519 333d
000001a0: 242a 14bd 8c2a 8abc ea7c 153d bdfb dbbd
000001b0: 968d 4c3e d7ce 34bc e54b f23d 8c3f 6fbd
000001c0: cc0c 38bd edc4 24bd 9589 e73c 0222 14be
000001d0: 7216 823d e221 073d 489e 48be 7b82 7ebd
000001e0: e7d5 eb3d 6064 cabb 3b00 593d 4cff 89bc
000001f0: b44f 02bb 506f 86bd bc26 b7bd 35df 343e
00000200: 1536 8ebc 4739 9fbb 3a7f 173e c964 2dbd
00000210: 96eb 11bc d0e5 9e3d b237 91be 3fd2 903d
00000220: 42bd 513d de5b 0d3e 01a1 0bbd 97ac 12bc
00000230: b7cf 3d3d 298d f33c 42b9 01bd a39f 38be
00000240: b752 dcbd 0837 f73c cd1a c0bd 6622 043e
00000250: 75f0 02bd 1fff 083d d617 1bbe 9fbf 58be
00000260: 50ac a1bd db8a 6d3e 5f6b 5cbe 8a9a 22be
00000270: 1032 99bd 99d9 2dbd 360e 7b3c 7c47 603e
00000280: 6c76 c83d 4350 bfbd 67c1 0d3e 7188 26bd
00000290: 5118 9cbe 87e2 37be e95f 7e3e b004 d03c
000002a0: c1c4 af3d 5a64 253d 14d5 1dbe 0284 a03d
000002b0: 94a5 1f3e ee16 10be f3b1 ef3b 99ae 0fbe
000002c0: 6354 823e b448 853a c9a9 3f3e 5cd5 d13d
000002d0: c0ee 9fbd 6e42 56bd df0f 95be 5eea 8cbd
000002e0: 02f0 e53d c81b 3e3e 875f a03d aaea 903c
000002f0: a4cd 353b be94 853e a28a 85bd a5e3 143d
00000300: 3b6f 063d 77c0 4b3d aee9 a7bc d461 46bd
00000310: 4e83 f73c 6a87 73be a14e 84bd e298 c73d
00000320: 94c7 a73d e1fa babd 4d87 ed3b 3c96 933d
00000330: d766 663d f96f 933d fc87 58bd d9ad 003e
00000340: 346f 13be 208b f8bc 4383 ca3d c3f2 c5bd
00000350: e98a 8f3e 06ee 5c3d c5c0 e9bd 32ad db3d
00000360: 7463 c1bd d24f 26bd 2512 063e 31bc 00be
00000370: d010 6ebb 8d86 0b3d 54d8 ac38 392d 953d
00000380: 553d f13c fe10 bebc 4579 4cbe 9af5 123e
00000390: f73a 4cbe d0ee 2a3d 634a 29be 354b c13b
000003a0: 6c38 5d3d 9fff f0bd 41dd c03d 438c 8e3d
000003b0: 0483 6bbd d4db 433d 9833 3e3c f571 a23c
000003c0: b410 143e 9de4 b5bd bd20 f7bc cbcc 2dbe
000003d0: c768 663d a146 69be 97a7 8d3c 1bda e0bd
000003e0: de75 3f3e e3f4 1f3d b7d8 95bd 3b1e 1d3e
000003f0: 8af9 20bd 7619 a4bc 72dc 3dbd d2ca e4ba
0.03102906 -0.055372592 0.14718582 -0.09132648 0.103165604 0.07922156 0.008297952 0.049622566
-0.15093628 0.049926706 -0.010925828 -0.031890016 0.042127963 0.07721256 -0.17899129 0.040815793
-0.049642105 -0.2190397 -0.014224908 0.032971665 -0.015751695 0.025854018 0.014233097 0.084104374
0.0492166 0.036601324 0.054674674 0.2137287 -0.041315816 0.07042314 0.10249614 -0.0186939
-0.09225767 -0.003397552 -0.098945014 0.12194528 -0.07236363 0.13677472 0.025530716 -0.18315183
-0.12767127 -0.021022595 0.11139509 -0.023603609 -0.14533928 -0.07452988 0.15974872 -0.1263272
0.11906352 -0.05477136 0.0246281 -0.14037606 -0.038404603 0.058086272 0.060307406 -0.07970975
-0.26029208 0.0020599677 0.08428013 0.094816685 -0.040871993 -0.02817621 -0.02788229 0.0738421
0.046216052 0.07190913 -0.017860977 0.120111756 -0.06836992 0.055558257 0.10714646 -0.07187459
-0.030333776 0.042352743 -0.18561997 -0.04722257 0.049524654 -0.009613656 -0.26515183 -0.11179358
0.13220397 -0.09358154 -0.15651001 0.09818054 0.13902669 -0.039632987 0.13042912 0.20024157
0.060533214 0.13496412 0.11272511 0.044197887 0.17972997 0.03275472 -0.026172295 0.14366694
0.047005806 -0.0882393 -0.08937109 0.057714444 -0.026454186 0.22608267 -0.028077729 0.043725688
-0.036173 -0.016865991 0.03649608 -0.10741375 0.19975886 -0.011035643 0.11830882 -0.058410212
-0.04493408 -0.040226866 0.028263846 -0.14466098 0.06351937 0.032991298 -0.1959163 -0.062136155
0.11515408 -0.0061765164 0.052978735 -0.016845368 -0.0019883933 -0.065642 -0.08942935 0.17663272
-0.017359773 -0.004859123 0.14794627 -0.042332444 -0.008906266 0.07758677 -0.28362805 0.07071351
0.05120588 0.13804576 -0.034089092 -0.008952281 0.04634067 0.029730396 -0.031670816 -0.18029647
-0.10757964 0.030177608 -0.09380112 0.12903747 -0.0319676 0.033446427 -0.15145811 -0.21166848
-0.07894194 0.231975 -0.21525334 -0.15879264 -0.07480252 -0.042443845 0.015323212 0.21902269
0.09788212 -0.093414806 0.13843308 -0.040657464 -0.30487302 -0.17957507 0.24841274 0.02539286
0.0858245 0.040378906 -0.15413314 0.078376785 0.15590507 -0.14071247 0.0073149144 -0.14031447
0.25455007 0.0010168762 0.18717112 0.10245773 -0.0780921 -0.052309446 -0.2911367 -0.068806395
0.112274185 0.18565285 0.078307204 0.017690022 0.002774098 0.26090044 -0.06520583 0.03634991
0.03282092 0.049744096 -0.02049717 -0.04843314 0.030213978 -0.23782125 -0.0646031 0.09745957
0.081923634 -0.091298826 0.007248795 0.07206389 0.05625042 0.071990915 -0.05286406 0.12566318
-0.1439789 -0.030339777 0.098883174 -0.09665444 0.28035668 0.053937934 -0.11413721 0.10726394
-0.09442797 -0.040603466 0.13092859 -0.1257179 -0.003632594 0.034063864 8.2418934e-05 0.07284016
0.02944819 -0.023201462 -0.19968136 0.14351502 -0.19944368 0.041731656 -0.16532283 0.005898858
0.054008886 -0.11767506 0.09417201 0.069603465 -0.057497993 0.047817066 0.011608981 0.01982973
0.14459497 -0.08881495 -0.030166978 -0.16972654 0.056252267 -0.22780849 0.017291827 -0.109791
0.18697307 0.0390519 -0.07316726 0.15343563 -0.03930048 -0.020031672 -0.04635281 -0.0017455465
